CIFAR-ZOO0/experiments/cifar10/lenet/lenet.pth.tar (torch_old, 499275 bytes, 20 tensors)

conv_1.weight f4 [6, 3, 5, 5]
0.33155254 0.23581849 0.6222015 0.038940355 -0.0004883608 0.19591764 -0.3670614 0.103148915
0.6514482 0.056215893 0.18482658 -0.31067747 -1.0250347 0.103703216 0.6025157 0.30489543
0.15517841 -0.18751363 -0.60286903 0.5373831 -0.41499618 -0.47975582 -0.13342977 -0.38222978
0.18369198 -0.34564337 -0.17625554 -0.0077957534 0.21848294 -0.07400142 -0.22896661 -0.24527591
-0.27232203 0.62027144 0.078577116 -0.13835695 -0.1484862 -1.2505299 -0.42271203 0.3177354
0.18900359 0.2968214 0.06636881 -0.8117266 -0.02155008 0.33007002 0.11681591 0.2894435
-0.09267984 -0.5032626 0.098241836 -0.13194762 -0.19497982 -0.31507772 -0.11562759 0.025563065
0.06098109 0.080510736 0.24465497 -0.10862083 -0.116793044 0.28174347 -0.35986054 0.043932937
0.19865397 -0.1750846 0.23518836 0.34561175 -0.652356 -0.081815384 0.054511767 0.17122671
0.58805674 0.31236652 0.02273405 -0.09832212 0.034164753 0.25405455 0.06559545 -0.10514144
-0.29253334 0.10200465 0.2584543 0.19233748 -0.29351997 -0.40649366 0.5246319 -0.5411862
1.0740416 -0.789478 -0.5583487 0.996776 -1.5810208 1.4901935 -0.79690766 -0.045912396
0.84483075 -0.7151108 0.7122379 -0.23778294 0.1413986 -0.10527572 -0.40283275 -0.26469284
0.3250488 0.41096056 -0.052974895 -0.59468293 -0.11919323 0.5847282 0.6003107 0.18567401
-1.8393792 0.5093233 0.42569038 0.5170803 1.047173 -2.233823 1.1323884 0.44316983
0.09995089 0.218341 -1.5152261 0.1160916 0.18374601 -0.07272011 -0.03230143 0.27813795
0.089212134 -0.20028429 -0.10530124 0.012528543 -0.020918427 0.1817942 -0.23670755 -0.12452974
0.5267862 -0.9246489 0.97551155 -0.37786222 -0.4165026 1.1355462 -1.8134854 1.3964643
-0.40219635 -0.049622733 0.7998208 -1.1912866 0.6847525 -0.0047179605 -0.14189757 -0.25213265
-0.08276048 0.04314401 0.2629738 -0.29728243 0.21305381 -0.6174322 0.40214387 0.5006695
-0.19131798 -0.6215946 0.77361715 1.2918599 -1.0294858 0.29697818 0.37326035 1.2323319
-2.2371626 0.07309715 -0.034043897 0.41075373 -0.9964033 0.22966939 0.61363083 0.29574367
0.27968645 0.31133106 0.2033052 -0.63577914 0.39844477 0.6515157 -0.5377332 0.025548743
-0.37893227 0.5205141 -0.5479268 0.19213744 0.36907077 -1.099394 0.61070275 0.035738062
0.6047145 -2.4251292 1.0316608 -0.7324205 -0.49008584 -1.3755295 0.63516223 1.5751857
-0.41297275 -0.29899096 -0.11283349 0.39847767 0.018290529 -0.38310108 0.33539563 -0.510332
0.47371992 0.018625364 -0.24710578 -0.4598256 0.7150977 1.333588 -0.80443704 0.22373967
0.35074022 1.2179408 -2.0522645 -0.12158129 0.17963213 0.47260493 -0.79957384 0.20205115
0.3470955 0.5938879 0.21766451 0.41551718 0.0543676 0.5419106 0.573778 -0.08501693
0.10586213 -0.8232175 0.01771123 -0.14683409 -0.8354908 -0.69447523 -0.9742502 -0.24176317
0.24559148 -0.68151677 -0.5582155 -0.50790375 0.45792818 1.1375705 0.07869846 -0.51549155
-0.24340914 0.59946674 -0.23127368 -0.47574702 -0.31191415 -0.048341412 -0.30223733 -0.24786727
00000000: 41c1 a93e 677a 713e 9948 1f3f ec7f 1f3d
00000010: 5705 00ba a29e 483e 79ef bbbe bd3f d33d
00000020: 4fc5 263f a342 663d 2e43 3d3e 1e11 9fbe
00000030: 5634 83bf 5a62 d43d 783e 1a3f 411b 9c3e
00000040: 17e7 1e3e 9303 40be a055 1abf f091 093f
00000050: 617a d4be 8ea2 f5be d0a1 08be 9fb3 c3be
00000060: c019 3c3e 2bf8 b0be 557c 34be 8573 ffbb
00000070: feb9 5f3e 0e8e 97bd 3976 6abe 9c29 7bbe
00000080: cb6d 8bbe 1cca 1e3f 0aed a03d 72ad 0dbe
00000090: c40c 18be 5d11 a0bf b66d d8be 37ae a23e
000000a0: 288a 413e f9f8 973e 5fec 873d 51cd 4fbf
000000b0: cb89 b0bc f0fe a83e 2e3d ef3d f031 943e
000000c0: eece bdbd d1d5 00bf 0433 c93d 471d 07be
000000d0: caa8 47be de51 a1be 28ce ecbd a269 d13c
000000e0: 4fc7 793d d0e2 a43d d586 7a3e 9974 debd
000000f0: 3131 efbd ae40 903e a43f b8be 06f3 333d
00000100: f26b 4b3e 6149 33be 38d5 703e 06f4 b03e
00000110: ce00 27bf d38e a7bd bb47 5f3d 0e56 2f3e
00000120: e38a 163f 81ee 9f3e c23c ba3c 1c5d c9bd
00000130: 57f0 0b3d 7013 823e e856 863d 6554 d7bd
00000140: eec6 95be d0e7 d03d 1f54 843e 1ef4 443e
00000150: 4048 96be f01f d0be 474e 063f 2e8b 0abf
00000160: 327a 893f 3b1b 4abf f1ef 0ebf b62c 7f3f
00000170: e45e cabf a9be be3f 2402 4cbf a30e 3cbd
00000180: d446 583f 8011 37bf 3955 363f 5f7d 73be
00000190: cbca 103e cc9a d7bd 1840 cebe d285 87be
000001a0: cc6c a63e 6c69 d23e 34fc 58bd 243d 18bf
000001b0: 951b f4bd bfb0 153f f6ad 193f 5421 3e3e
000001c0: c770 ebbf 0363 023f 17f4 d93e 605f 043f
000001d0: c409 863f f5f6 0ec0 1af2 903f 28e7 e23e
000001e0: 0db3 cc3d c894 5f3e eef2 c1bf 6fc1 ed3d
000001f0: ea27 3c3e 48ee 94bd 814e 04bd 1968 8e3e
00000200: dab4 b63d 5317 4dbe 2da8 d7bd 8544 4d3c
00000210: 1f5d abbc 4228 3a3e 7763 72be 7309 ffbd
00000220: 76db 063f cab5 6cbf 20bb 793f 2877 c1be
00000230: d43f d5be 9459 913f 4a20 e8bf 58bf b23f
00000240: aeec cdbe 3541 4bbd 0ec1 4c3f 147c 98bf
00000250: f14b 2f3f 1f99 9abb 994d 11be 8817 81be
00000260: 547e a9bd c6b7 303d 80a4 863e 6735 98be
00000270: c72a 5a3e 0910 1ebf cde5 cd3e e02b 003f
00000280: dce8 43be d320 1fbf c60b 463f aa5b a53f
00000290: 31c6 83bf 860d 983e fb1b bf3e 0dbd 9d3f
000002a0: ac2d 0fc0 f5b3 953d 9d71 0bbd 504e d23e
000002b0: 4914 7fbf 742e 6b3e e916 1d3f b76b 973e
000002c0: 1033 8f3e c966 9f3e 3d2f 503e 6cc2 22bf
000002d0: f400 cc3e bcc9 263f e2a8 09bf 994b d13c
000002e0: 6903 c2be 6940 053f ee44 0cbf adbf 443e
000002f0: d8f6 bc3e f1b8 8cbf 0457 1c3f 1362 123d
00000300: 92ce 1a3f 5135 1bc0 760d 843f e97f 3bbf
00000310: 88ec fabe 5a11 b0bf fe99 223f af9f c93f
00000320: 2a71 d3be 5815 99be 3f15 e7bd 4405 cc3e
00000330: 05d6 953c d325 c4be fab8 ab3e 1ea5 02bf
00000340: 6b8b f23e 3894 983c 4c09 7dbe 436e ebbe
00000350: a510 373f 03b3 aa3f 96ef 4dbf 031c 653e
00000360: 3994 b33e 7ce5 9b3f 4d58 03c0 9dff f8bd
00000370: 7cf1 373e 46f9 f13e dfb0 4cbf 7fe6 4e3e
00000380: 80b6 b13e 0a09 183f 72e3 5e3e abbe d43e
00000390: 8fb0 5e3d a7ba 0a3f 1de3 123f 5b1d aebd
000003a0: 3fce d83d 62be 52bf 2417 913c ad5b 16be
000003b0: bae2 55bf 21c9 31bf 7668 79bf c490 77be
000003c0: 557c 7b3e e277 2ebf 36e7 0ebf fb05 02bf
000003d0: 9075 ea3e e99b 913f a82c a13d 41f7 03bf
000003e0: 3f40 79be a776 193f 02d3 6cbe 1d95 f3be
000003f0: 36b3 9fbe a501 46bd dabe 9abe ebd0 7dbe

conv_1.bias f4 [6]
-0.26212084 -0.3189873 -0.62320024 0.05801084 0.20431444 -0.6167053
00000000: b434 86be 4e52 a3be 0d8a 1fbf c69c 6d3d
00000010: ce37 513e 66e0 1dbf

conv_2.weight f4 [16, 6, 5, 5]
-0.094768144 0.077671 -0.0215808 -0.028866496 0.17888 -0.08502377 -0.22048478 0.03372229
0.09208556 -0.060552604 0.09877849 -0.33938745 0.24098757 0.01911899 -0.023211217 0.012097906
0.60986185 -0.18288368 0.018409684 -0.14215803 0.0043047965 -0.28825125 -0.14471194 -0.3196151
-0.3641037 -0.14557451 0.074922845 -0.105953835 0.13596964 0.0079287365 0.32021245 -0.1381737
0.11814678 -0.2852732 0.017791577 -0.3646597 0.013808323 0.018001975 0.37992465 0.12333524
0.27895337 0.042500794 -0.1698003 -0.37843293 -0.014950123 -0.21608987 0.010425026 0.20736426
0.16797306 -0.06391877 -0.09237443 0.121719636 0.101244844 0.1414285 0.08572863 0.06361868
-0.01653618 0.0732744 0.05641473 0.17239866 0.046982866 0.021121088 0.20493895 0.076557435
0.24956149 -0.008775176 0.0034278769 0.13838647 0.32543123 0.31992438 0.16943142 0.12509806
0.119735695 0.12405274 0.30567014 -0.28526753 0.012381324 -0.12862886 -0.21238473 -0.12680711
-0.031681858 -0.090680994 -0.049322326 0.0744384 -0.018103447 0.0098522715 -0.29573485 -0.13921058
-0.13983323 -0.23581727 -0.019186638 -0.26999885 -0.28378776 -0.21283382 -0.24160518 -0.21575491
-0.27818197 -0.6786645 -0.21669878 0.078395866 0.02273839 -0.31952998 0.13460828 -0.37983802
0.15053128 -0.041679796 0.35438028 -0.2510673 0.41625947 -0.16183642 0.11084038 -0.08246439
-0.20404151 -0.15109853 0.026278922 0.13080326 0.021856967 0.14404693 -0.22219113 -0.20550223
-0.003812916 -0.22037138 0.056685295 0.05528903 -0.15664779 -0.2614221 0.11141772 0.049996097
-0.17360242 -0.18478282 -0.14110608 0.122338615 0.020974368 -0.09810129 -0.15785891 -0.014845786
-0.027015993 0.09605896 0.17965193 -0.34294215 -0.10187217 -0.05562838 0.09331172 0.1705399
-0.41207975 -0.06901192 0.07454341 0.03586567 -0.1164988 -0.25771105 -0.00585704 -0.10498011
0.11779746 -0.0895947 -0.34270957 0.17234483 0.2698112 -0.11315 -0.14548692 -0.08953178
0.432043 -0.65148485 0.23902386 0.23124321 -0.0103774695 -0.112048805 1.8424255 -0.7374016
0.010687426 -0.5225678 -0.19607396 -1.4478151 1.1133912 0.42291343 0.22407745 0.0961049
0.08288001 0.010819431 0.08223159 -0.08509866 -0.012704884 0.14920303 0.22141358 -0.22451864
0.11204732 0.12563446 0.08166217 -0.38148454 0.13880776 -0.14505409 -0.101043865 -0.15253732
0.11407342 -0.10344421 -0.058457892 -0.1703778 -0.3533511 -0.121681854 -0.12201376 0.015501025
-0.12601385 0.12897952 0.11190581 0.11773368 0.0662269 -0.10770778 -0.089576125 0.03855374
0.07355072 0.04524708 -0.5108344 -0.15951958 -0.070949994 0.050518114 -0.0031897607 -0.47571522
-0.28292596 -0.35247174 0.05482446 0.0018040672 -0.07259394 -0.08319369 0.01610351 -0.012551778
-0.048703924 -0.08092268 -0.026313726 -0.01930114 -0.052447088 -0.055988148 0.0740198 -0.011718693
0.07688546 0.053133145 -0.00032288182 -0.044991843 -0.011876365 0.2192982 0.036815587 0.047034543
0.057899408 -0.36585855 -0.11450479 0.22167453 0.2158516 0.09710997 -0.022406414 -0.2264408
-0.062565714 0.13899824 -0.17134704 0.15793262 -0.14907146 -0.1499315 -0.25675365 0.19127114
00000000: cd15 c2bd f911 9f3d 38ca b0bc 6e79 ecbc
00000010: 522c 373e f120 aebd c3c6 61be 6220 0a3d
00000020: 5b97 bc3d 0206 78bd 614c ca3d 31c4 adbe
00000030: 72c5 763e 6e9f 9c3c 7325 bebc 4c36 463c
00000040: e81f 1c3f dc45 3bbe e8cf 963c e091 11be
00000050: 400f 8d3b ab95 93be 5e2f 14be 97a4 a3be
00000060: cd6b babe 7c11 15be 2671 993d 53fe d8bd
00000070: a03b 0b3e 88e7 013c e3f2 a33e 687d 0dbe
00000080: f0f6 f13d 540f 92be a4bf 913c adb4 babe
00000090: 4e3c 623c e178 933c 7c85 c23e 3097 fc3d
000000a0: fad2 8e3e 5015 2e3d 21e0 2dbe f6c1 c1be
000000b0: 5cf1 74bc aa46 5dbe bacd 2a3c 4c57 543e
000000c0: 2101 2c3e d8e7 82bd ce2e bdbd 2548 f93d
000000d0: 7559 cf3d a2d2 103e 7e92 af3d 834a 823d
000000e0: e276 87bc e310 963d 2213 673d 4689 303e
000000f0: 1b71 403d 2206 ad3c 84db 513e 25ca 9c3d
00000100: 0c8d 7f3e c1c5 0fbc 3ba6 603b 2fb5 0d3e
00000110: ec9e a63e 21cd a33e 6e7f 2d3e b519 003e
00000120: fd37 f53d 5d0f fe3d cc80 9c3e 960e 92be
00000130: 09db 4a3c 49b7 03be 627b 59be b9d9 01be
00000140: d6c4 01bd f5b6 b9bd 3506 4abd 2973 983d
00000150: ae4d 94bc 6c6b 213c 8f6a 97be 388d 0ebe
00000160: 7130 0fbe 157a 71be 4c2d 9dbc 4a3d 8abe
00000170: a14c 91be 1cf1 59be 5967 77be dbee 5cbe
00000180: de6d 8ebe f5bc 2dbf 49e6 5dbe 038e a03d
00000190: dc45 ba3c 6f99 a3be c1d6 093e 217a c2be
000001a0: df24 1a3e 6fb8 2abd 5571 b53e e58b 80be
000001b0: f61f d53e 72b8 25be 4800 e33d 17e3 a8bd
000001c0: 42f0 50be 93b9 1abe e546 d73c 4af1 053e
000001d0: 620d b33c 0a81 133e 1286 63be 2d6f 52be
000001e0: 1ee2 79bb 09a9 61be d72e 683d c076 623d
000001f0: 4768 20be 1ed9 85be f92e e43d b5c8 4c3d
00000200: d5c4 31be b537 3dbe 1d7e 10be ab8c fa3d
00000210: 70d2 ab3c 54e9 c8bd c4a5 21be bd3b 73bc
00000220: a550 ddbc 8fba c43d adf6 373e 1d96 afbe
00000230: 5ba2 d0bd 96da 63bd 371a bf3d 03a2 2e3e
00000240: 1efc d2be 1f56 8dbd 37aa 983d e1e7 123d
00000250: ec96 eebd b4f2 83be 6aec bfbb d0ff d6bd
00000260: cb3f f13d 6d7d b7bd a177 afbe 2a7b 303e
00000270: b224 8a3e 30bb e7bd 86fa 14be 705c b7bd
00000280: bd34 dd3e b6c7 26bf acc2 743e 05cb 6c3e
00000290: 4306 2abc d879 e5bd 99d4 eb3f 5ac6 3cbf
000002a0: 501a 2f3c 01c7 05bf 9dc7 48be 0152 b9bf
000002b0: 9a83 8e3f 1c88 d83e 8f74 653e a5d2 c43d
000002c0: ffbc a93d fc43 313c 0969 a83d 3548 aebd
000002d0: 2528 50bc aec8 183e 3eba 623e 37e8 65be
000002e0: 1179 e53d 52a6 003e 7f3e a73d f151 c3be
000002f0: 9f23 0e3e 0f89 14be 16f0 cebd be32 1cbe
00000300: 539f e93d 8fda d3bd 8b71 6fbd 8577 2ebe
00000310: 6fea b4be 5634 f9bd 5ae2 f9bd 03f8 7d3c
00000320: c609 01be 3513 043e e02e e53d 5b1e f13d
00000330: f8a1 873d e695 dcbd b073 b7bd 87ea 1d3d
00000340: c3a1 963d 0155 393d 0bc6 02bf 1a59 23be
00000350: 3b4e 91bd 15ec 4e3d 4e0b 51bb f290 f3be
00000360: acdb 90be 2d77 b4be 9d8f 603d 7376 ec3a
00000370: 22ac 94bd 7461 aabd 82eb 833c f9a5 4dbc
00000380: c47d 47bd caba a5bd e28f d7bc 6d1d 9ebc
00000390: c2d2 56bd d453 65bd b197 973d c3ff 3fbc
000003a0: 2076 9d3d 24a2 593d 7748 a9b9 5e49 38bd
000003b0: 1695 42bc b58f 603e f1cb 163d 4ba7 403d
000003c0: ee27 6d3d d051 bbbe 7d81 eabd a6fe 623e
000003d0: 3408 5d3e 98e1 c63d a88d b7bc 19e0 67be
000003e0: 7422 80bd 8e55 0e3e 9975 2fbe 17b9 213e
000003f0: 30a6 18be a587 19be 3775 83be 95dc 433e

conv_2.bias f4 [16]
4.0578413 -0.8536404 2.4762304 1.283483 -0.5750801 -2.7018273 1.1066669 2.444411
0.8605262 -0.03816647 0.79041165 -1.1771438 -0.13314764 4.874361 -0.816189 0.15329246
00000000: d6d9 8140 2d88 5abf 8f7a 1e40 2c49 a43f
00000010: 7338 13bf bdea 2cc0 43a7 8d3f 3b71 1c40
00000020: 724b 5c3f 7254 1cbd 6b58 4a3f a6ac 96bf
00000030: db57 08be c4fa 9b40 c3f1 50bf b3f8 1c3e

fc_1.weight f4 [120, 400]
-0.22553737 -0.07021549 0.03642508 -0.103225246 -0.10396281 -0.112190224 0.06875102 0.20742679
0.079176866 0.011307728 -0.1678102 0.092270575 0.27854267 0.12517609 0.13410598 -0.24258685
0.0830802 0.15906611 0.14289619 0.20098378 -0.1573272 0.050817408 0.17827196 0.19794348
0.2746694 0.016544364 -0.04404567 -0.09942101 -0.004664525 0.008640898 -0.073646046 -0.05367561
0.01578806 0.00957299 0.06990493 -0.0038129606 -0.038589828 -0.020742409 0.06701338 0.11147643
-0.07296357 -0.042957228 0.039289568 0.014976564 0.014864069 0.17463899 0.09486764 0.1716135
0.17420763 0.102567665 -0.03788711 -0.021322902 0.110450715 -0.0027704833 -0.14002457 -0.11728445
0.112695225 0.17270623 0.09090673 -0.16017167 -0.06796176 0.05795383 0.02188172 0.059005626
-0.07718205 -0.046352565 -0.10816788 -0.10545838 -0.09410711 -0.087980315 -0.1231352 -0.1580746
-0.19589144 -0.23642264 -0.2684774 0.14883982 0.061504383 0.013191404 0.025971433 -0.040622912
0.06902204 0.06737378 0.08312453 0.01837275 -0.059175435 0.03201953 -0.054945864 -0.0763296
-0.12654473 -0.17740625 0.069305345 -0.08012143 -0.17336412 -0.09074965 -0.022838088 0.12367722
0.08907215 -0.027526045 0.022843102 -0.026809417 0.04700804 0.013923898 0.09381801 0.15781109
0.088986985 -0.09416063 -0.10233456 -0.029152505 -0.08511256 -0.04609689 -0.03917049 -0.009755575
0.08913464 -0.09121244 0.036420327 -0.060901247 -0.016071133 0.09416453 -0.050338656 -0.012225603
0.19150408 0.19422159 0.11343597 0.103931524 -0.05219535 -0.009107185 0.023970783 0.08759153
0.043721262 0.15067935 0.0046272213 0.019805599 0.027952714 0.07014622 0.0849262 0.034868523
0.045495193 0.03479266 -0.057532232 -0.040466312 0.13806142 0.087741785 0.011849101 -0.19346398
-0.054818265 0.12701993 0.047215518 -0.068713784 -0.1845989 -0.10443353 0.11290437 0.077210374
-0.08807949 -0.05969422 -0.054713365 0.037959233 0.055112984 -0.0017144176 -0.02584248 -0.043681618
0.0039684507 -0.029664582 -0.08706537 -0.043076467 0.05463565 0.007812173 -0.08375278 -0.16683002
-0.085230015 -0.07133447 -0.030360198 -0.0806127 -0.20037992 -0.10015966 0.028736213 -0.008250296
0.04044797 0.05309476 0.087759726 0.122685745 -0.04037288 0.14487448 0.13181482 0.011284153
-0.0045208177 -0.082751386 0.017684584 0.052114014 0.02407773 -0.1312224 -0.008415442 0.0767807
0.008467112 -0.02207513 -0.045631226 0.07857663 0.13158336 -0.0023398572 -0.10506337 0.055287477
-0.043133825 -0.1597216 -0.08507163 -0.06438915 -0.013739332 0.03661048 0.17608723 0.098808385
0.07686924 0.03594668 0.09170032 -0.015502518 -0.16527244 -0.16495669 -0.018356403 -0.006946507
-0.13157603 -0.24144585 -0.2072618 -0.08093189 0.035143133 -0.031679217 -0.045693677 -0.00903089
-0.053235717 -0.04784029 -0.09302963 -0.07731178 -0.11767854 -0.15155987 0.064732924 0.05020372
0.07842363 0.0075228414 -0.02176997 0.09602446 0.021984776 0.052620914 -0.06744992 -0.059489004
0.12109611 0.13595323 0.04120059 -0.030138869 -0.11511512 0.020930095 0.10564319 -0.035674393
0.022144048 -0.053512696 0.0147705395 0.06855743 0.027857283 0.0204251 0.013183876 -0.0371632
00000000: 45f3 66be 24cd 8fbd 7732 153d c267 d3bd
00000010: 74ea d4bd fdc3 e5bd 56cd 8c3d b067 543e
00000020: 7b27 a23d 0c44 393c 70d6 2bbe 5bf8 bc3d
00000030: 259d 8e3e 292e 003e 1453 093e b068 78be
00000040: f425 aa3d 3ae2 223e 6153 123e b1ce 4d3e
00000050: 621a 21be ea25 503d ed8c 363e b2b1 4a3e
00000060: 78a1 8c3e 0c88 873c 3c69 34bd 3e9d cbbd
00000070: dfd8 98bb 8e92 0d3c bdd3 96bd f5da 5bbd
00000080: f655 813c 08d8 1c3c 512a 8f3d dde2 79bb
00000090: 5e10 1ebd fceb a9bc 503e 893d c14d e43d
000000a0: ed6d 95bd ebf3 2fbd 19ee 203d 4360 753c
000000b0: 6d88 733c 90d4 323e f749 c23d 73bb 2f3e
000000c0: 7c63 323e ff0e d23d 842f 1bbd 5ead aebc
000000d0: fc33 e23d ff90 35bb 9a62 0fbe d432 f0bd
000000e0: c1cc e63d e7d9 303e 4f2d ba3d 0b04 24be
000000f0: 892f 8bbd ff60 6d3d 4b41 b33c e2af 713d
00000100: 9f11 9ebd 30dc 3dbd 1f87 ddbd 90fa d7bd
00000110: 3abb c0bd 062f b4bd 4f2e fcbd 4fde 21be
00000120: c497 48be c718 72be df75 89be 7769 183e
00000130: 05ec 7b3d c220 583c 0bc2 d43c 3664 26bd
00000140: 6d5b 8d3d 44fb 893d 323d aa3d 7382 963c
00000150: f161 72bd e926 033d ea0e 61bd b152 9cbd
00000160: f194 01be fca9 35be f6ef 8d3d b416 a4bd
00000170: 5d86 31be f4da b9bd f116 bbbc 7b4a fd3d
00000180: 766b b63d 4d7e e1bc 7521 bb3c 6c9f dbbc
00000190: 818b 403d 1021 643c a823 c03d 3b99 213e
000001a0: cf3e b63d 4ad7 c0bd c894 d1bd 3cd1 eebc
000001b0: 7e4f aebd 18d0 3cbd 3c71 20bd d9d5 1fbc
000001c0: 398c b63d 96cd babd 7b2d 153d 9673 79bd
000001d0: 9ca7 83bc 55d9 c03d e82f 4ebd e54d 48bc
000001e0: a519 443e 06e2 463e 1e51 e83d 0dda d43d
000001f0: cbca 55bd 4d36 15bc 605e c43c 3063 b33d
00000200: 1115 333d b04b 1a3e f29f 973b 5a3f a23c
00000210: 17fd e43c d2a8 8f3d caed ad3d 4cd2 0e3d
00000220: 2b59 3a3d c082 0e3d eba6 6bbd 01c0 25bd
00000230: f95f 0d3e f7b1 b33d bb22 423c 6c1b 46be
00000240: 1e89 60bd 8311 023e 0f65 413d d0b9 8cbd
00000250: 7e07 3dbe 3fe1 d5bd 683a e73d 7920 9e3d
00000260: 0563 b4bd ed81 74bd 1f1b 60bd 247b 1b3d
00000270: 27be 613d 4fb6 e0ba 9cb3 d3bc 7feb 32bd
00000280: c709 823b 2303 f3bc 544f b2bd f370 30bd
00000290: a2c9 5f3d 42fd ff3b 9486 abbd 7dd5 2abe
000002a0: 138d aebd ce17 92bd f3b5 f8bc 4518 a5bd
000002b0: 6530 4dbe 8220 cdbd 3568 eb3c 402c 07bc
000002c0: c5ac 253d e479 593d 5fbb b33d aa42 fb3d
000002d0: 085e 25bd fa59 143e 77fa 063e 2be1 383c
000002e0: 5e23 94bb 8f79 a9bd 43df 903c 8175 553d
000002f0: a93e c53c 2a5f 06be ece0 09bc 333f 9d3d
00000300: a4b9 0a3c e7d6 b4bc cfe7 3abd c9ec a03d
00000310: cabd 063e 4a58 19bb 772b d7bd 1f75 623d
00000320: 18ad 30bd 0f8e 23be 093a aebd 75de 83bd
00000330: ef1a 61bc dff4 153d 3650 343e 0d5c ca3d
00000340: 9f6d 9d3d d33c 133d 61cd bb3d 46fe 7dbc
00000350: 2e3d 29be 68ea 28be 2b60 96bc 869f e3bb
00000360: debb 06be 953d 77be 703c 54be 9ebf a5bd
00000370: 3ff2 0f3d 11c2 01bd 4b29 3bbd 4cf6 13bc
00000380: b20d 5abd 2ef4 43bd 5286 bebd a355 9ebd
00000390: 7201 f1bd 8332 1bbe b292 843d 6aa2 4d3d
000003a0: 919c a03d 2b82 f63b f056 b2bc 79a8 c43d
000003b0: 6b19 b43c 0789 573d 2f23 8abd beaa 73bd
000003c0: 3d01 f83d 5337 0b3e f3c1 283d cae5 f6bc
000003d0: 7ac1 ebbd 9775 ab3c 755b d83d 501f 12bd
000003e0: 6f67 b53c 2130 5bbd 2200 723c d667 8c3d
000003f0: f534 e43c 8a52 a73c 2f01 583c 7138 18bd

fc_1.bias f4 [120]
0.15171121 0.24184571 -0.042056393 -0.123454556 -0.069633946 0.27610436 0.0778123 0.014501053
-0.15820627 -0.05438681 0.35050982 0.17940085 -0.12408783 0.071599066 0.10562761 -0.11955331
0.059315547 -0.0007231746 0.120476164 0.1997431 -0.14606047 -0.0022293315 0.096167654 0.0031549253
-0.07857988 0.35337922 -0.20443486 0.34608796 -0.09663723 -0.24678412 0.27246302 -0.16360994
0.088603355 -0.30410743 -0.074550584 -0.21239989 0.056422032 0.16089143 -0.15511675 0.13598593
-0.14974387 0.28889582 0.26680818 -0.3617675 0.086014315 -0.04861799 0.35787567 -0.035454977
0.15249552 0.25459385 -0.18669273 -0.16415891 -0.055946294 -0.04332653 -0.29745734 -0.13384691
-0.19039063 -0.10595424 -0.00043300155 -0.098567024 -0.3878306 -0.19072387 0.56296825 0.019442542
0.18415675 -0.11409056 -0.08947443 -0.36109027 0.10051426 -0.2577184 0.26739722 -0.09875493
-0.027590662 -0.2572017 -0.0590681 0.04618999 0.3586536 0.107086174 -0.2910926 0.05521367
0.6069074 0.11335631 -0.031279888 -0.20522596 0.14560582 -0.13037957 0.1739097 0.0006808414
-0.1427203 -0.22733289 0.3206191 0.05119127 0.18902406 0.23446701 -0.041131865 0.2458723
-0.1362581 0.24531953 0.13584746 0.06716598 0.14246824 -0.07684255 0.26657283 -0.16653474
0.10999312 0.27166146 0.30176762 -0.13542923 -0.24310708 0.19622219 0.123879686 0.21794324
-0.14684615 0.13541876 -0.10185749 -0.11021942 0.04840904 -0.22393256 -0.19617677 -0.08477764
00000000: 2f5a 1b3e 67a6 773e 5343 2cbd bed5 fcbd
00000010: 3e9c 8ebd 8d5d 8d3e 0e5c 9f3d d395 6d3c
00000020: d300 22be b4c4 5ebd 0676 b33e dbb4 373e
00000030: c321 febd 88a2 923d 4a53 d83d 5ed8 f4bd
00000040: dcf4 723d 6d93 3dba 35bc f63d 7589 4c3e
00000050: e090 15be fa19 12bb 8cf3 c43d ddc2 4e3b
00000060: 7dee a0bd 1fee b43e 5f57 51be 7132 b13e
00000070: bde9 c5bd fab4 7cbe 4680 8b3e 5d89 27be
00000080: ad75 b53d f8b3 9bbe faad 98bd 5b7f 59be
00000090: ca1a 673d b9c0 243e edd6 1ebe e53f 0b3e
000000a0: 7556 19be 27ea 933e 159b 883e 9739 b9be
000000b0: 4628 b03d a823 47bd 7b3b b73e 3d39 11bd
000000c0: c927 1c3e 205a 823e 612c 3fbe 4619 28be
000000d0: f127 65bd 2977 31bd 544c 98be 2a0f 09be
000000e0: c3f5 42be 89fe d8bd 7c04 e3b9 82dd c9bd
000000f0: bb91 c6be 1e4d 43be b01e 103f f745 9f3c
00000100: 9693 3c3e 50a8 e9bd 5f3e b7bd d3e0 b8be
00000110: 6cda cd3d abf3 83be 4ae8 883e 0640 cabd
00000120: d005 e2bc f1af 83be 64f1 71bd b731 3d3d
00000130: 72a1 b73e ff4f db3d 170a 95be bb27 623d
00000140: 495e 1b3f 5a27 e83d 571f 00bd c126 52be
00000150: b119 153e 3982 05be 6215 323e 7e7a 323a
00000160: 4525 12be f4c9 68be 3028 a43e f0ad 513d
00000170: 868f 413e 1f18 703e e379 28bd f3c5 7b3e
00000180: 3e87 0bbe 0b35 7b3e 991b 0b3e 518e 893d
00000190: 32e3 113e a05f 9dbd 3c7c 883e 1588 2abe
000001a0: 1344 e13d 3617 8b3e 4981 9a3e f6ad 0abe
000001b0: 10f1 78be 78ee 483e a2b4 fd3d 832c 5f3e
000001c0: d65e 16be 37ab 0a3e a99a d0bd b8ba e1bd
000001d0: 8f48 463d 944e 65be 90e2 48be e69f adbd

fc_2.weight f4 [84, 120]
-0.023837743 -0.04685668 -0.017496014 -0.014675277 -0.04159182 -0.00930391 0.013746514 -0.027375344
-0.013033062 -0.0067276764 -0.039607827 -0.033477914 -0.022934942 0.017534647 -0.013614588 -0.008428003
-0.013216066 -6.4069823e-06 -0.024795875 -0.026033388 -0.017121272 -0.00054534635 0.042066365 0.000101809324
-0.025311995 -0.0006030412 -0.024387788 -0.021502485 -0.009222145 -0.014609176 -0.03665452 -0.029544722
-0.010273913 -0.022814235 -0.006083916 -0.025147298 -0.021761011 -0.03144992 -0.0070878053 -0.006769225
-0.008024934 -0.022247512 -0.038196344 -0.044065055 -0.020199701 -0.017082041 -0.020543631 -0.014307853
-0.014719496 -0.010259648 -0.02290459 -0.016255727 -0.024531534 -0.012425167 -0.017088223 -0.0036551866
-0.031867802 -0.0055558328 -0.00035446102 -0.012766766 0.0030757866 -0.029195797 -0.036558893 -0.02825768
-0.012935249 -0.058609076 -0.025433559 -0.005046373 -0.0037697772 -0.033448562 -0.016921226 -0.0075355773
-0.017334744 -0.0002118258 -0.02074664 -0.04063154 -0.03366599 -0.03471839 -0.019165177 -0.022579595
-0.003951684 -0.03965499 -0.0008622621 -0.009365201 -0.031359125 -0.016822658 -0.010197768 0.00021355758
-0.019554637 -0.0384732 -0.0046254727 -0.0113693755 -0.015295512 -0.0043089776 -0.009711133 -0.024010146
-0.008576182 -0.005459305 -0.00024218265 -0.007657294 -0.016520077 -0.005428009 -0.010126564 -0.02168598
-0.012097095 -0.027418159 -0.031714864 -4.709108e-05 -0.007973305 -0.038846742 -0.007112765 -0.023964453
-0.023759201 -0.0065341666 -0.006039279 -0.025172032 -0.022156445 -0.02318615 -0.007719482 -0.01494167
0.05833201 -0.15444958 0.06488956 0.032806944 0.012823233 0.006498744 0.09584449 -0.24363309
0.009805635 -0.12529989 -0.15567571 0.02186647 -0.075356156 -0.09552271 0.0032012374 -0.1612429
-0.02105754 8.238619e-05 -0.15954222 0.10783637 -0.020859255 -0.0018104985 -0.1631326 -0.0029893515
-0.009658896 0.085938126 0.018715523 -0.012788376 0.08536813 -0.031015197 0.020955939 -0.15805885
-0.12403547 -0.032347016 -0.057454247 -0.07034816 -0.14435074 0.1258377 -0.07457299 0.009761409
-0.055879515 -0.070611045 0.055671453 -0.060434055 -0.09619768 -0.004750851 0.06887464 0.060052596
-0.030705677 0.1974746 -0.062695816 0.047192615 -0.090283945 -0.11027612 0.12850042 -0.0020451823
0.021317491 -0.017158417 0.00048322143 0.048148975 -0.00455117 0.040428575 0.14083655 -0.00089743244
-0.021921717 0.10026178 0.04699893 -0.27331057 -0.053132806 0.0629883 0.07313916 0.059010003
-0.046942662 -0.18061845 -0.13622253 -0.028831959 -0.04831274 0.016701642 -0.14498138 0.068137825
0.0556628 0.06502739 -0.09823132 -0.038644165 0.04693567 0.06444251 0.09056472 -7.855132e-05
0.016748387 -0.020105196 0.10025347 0.02315676 0.008626455 0.070099324 -0.01229662 -0.031589106
-0.02493213 -0.11750458 0.09306116 -0.07027942 -0.12524186 -0.107651025 0.039273467 0.07932575
0.09126832 -0.09323252 -0.14797215 -0.016880572 0.054586314 0.02583267 0.05697921 -0.036483802
0.062448826 0.044919945 0.027711073 -0.015473421 0.029288244 -0.11131106 -0.18638033 -0.08013459
0.10989125 0.011514204 -0.10820291 0.15598115 0.014020624 0.038542792 0.07556725 -0.054022502
-0.061916284 -0.09606871 -0.009820458 0.12920065 -0.05441114 0.03955784 -0.060890824 0.07398356
00000000: 5f47 c3bc caec 3fbd cd53 8fbc 9370 70bc
00000010: 2f5c 2abd 6d6f 18bc 0f39 613c 4242 e0bc
00000020: a088 55bc d773 dcbb d13b 22bd 2320 09bd
00000030: 0fe2 bbbc d2a4 8f3c b90f 5fbc 9b15 0abc
00000040: 3388 58bc 8ffb d6b6 b820 cbbc f943 d5bc
00000050: e941 8cbc 93f5 0eba c84d 2c3d 7782 d538
00000060: 1a5b cfbc 6915 1eba e6c8 c7bc fb25 b0bc
00000070: 7b18 17bc 535b 6fbc 0d23 16bd c607 f2bc
00000080: ea53 28bc ebe4 babc 965b c7bb b501 cebc
00000090: 2644 b2bc a2d1 00bd d240 e8bb 60d0 ddbb
000000a0: 037b 03bc 6a40 b6bc c573 1cbd 8f7d 34bd
000000b0: d879 a5bc a3ef 8bbc 1e4b a8bc 7c6b 6abc
000000c0: 0a2a 71bc 1518 28bc 68a2 bbbc bb2a 85bc
000000d0: 5bf6 c8bc ed92 4bbc 9afc 8bbc db8b 6fbb
000000e0: d087 02bd b40d b6bb f4d6 b9b9 b32b 51bc
000000f0: 2393 493b 062c efbc c7be 15bd a67c e7bc
00000100: 5eee 53bc 1210 70bd 0a5a d0bc 0b5c a5bb
00000110: 5e0e 77bb 5c01 09bd 629e 8abc 01ed f6bb
00000120: 9801 8ebc 8e1d 5eb9 dcf4 a9bc 426d 26bd
00000130: 59e5 09bd df34 0ebd 4a00 9dbc d8f8 b8bc
00000140: 217d 81bb 456d 22bd 6e09 62ba 8070 19bc
00000150: 6d72 00bd accf 89bc 8a14 27bc 6dee 5f39
00000160: 0c31 a0bc 1396 1dbd 4791 97bb 9e46 3abc
00000170: 079a 7abc 5332 8dbb 721b 1fbc edb0 c4bc
00000180: 1d83 0cbc f8e3 b2bb 69f2 7db9 0aea fabb
00000190: 1d55 87bc 71dd b1bb e3e9 25bc cca6 b1bc
000001a0: e532 46bc 0c9c e0bc 72e7 01bd aa83 45b8
000001b0: 77a2 02bc c31d 1fbd 3312 e9bb 1a51 c4bc
000001c0: a8a2 c2bc 901c d6bb 25e5 c5bb 9435 cebc
000001d0: 6f81 b5bc e1f0 bdbc b5f3 fcbb e8cd 74bc
000001e0: 8ced 6e3d 0828 1ebe d1e4 843d 9360 063d
000001f0: 8a18 523c 6af3 d43b 1e4a c43d f47a 79be
00000200: d0a7 203c 9d4e 00be 7469 1fbe 5021 b33c
00000210: 5454 9abd 69a1 c3bd dacb 513b dc1c 25be
00000220: dd80 acbc c0c6 ac38 095f 23be 51d9 dc3d
00000230: 07e1 aabc 404e edba 3b0c 27be ffe8 43bb
00000240: 5940 1ebc 5400 b03d 4c51 993c 5686 51bc
00000250: 7cd5 ae3d 9513 febc caab ab3c 2eda 21be
00000260: 4f06 febd 4e7e 04bd 2555 6bbd b212 90bd
00000270: aed0 13be 99db 003e b9b9 98bd 51ee 1f3c
00000280: ebe1 64bd 869c 90bd c007 643d b389 77bd
00000290: 4a03 c5bd 07ad 9bbb 260e 8d3d b6f9 753d
000002a0: 798a fbbc c836 4a3e aa66 80bd 0b4d 413d
000002b0: cae6 b8bd 72d8 e1bd 9d95 033e 7708 06bb
000002c0: 05a2 ae3c cf8f 8cbc e258 fd39 dc37 453d
000002d0: fb21 95bb 6f98 253d 7537 103e ac41 6bba
000002e0: 2c95 b3bc 0c56 cd3d f381 403d 5def 8bbe
000002f0: c9a1 59bd 0300 813d fcc9 953d 79b4 713d
00000300: f346 40bd 0bf4 38be eb7d 0bbe 0031 ecbc
00000310: 94e3 45bd e2d1 883c 0076 14be d88b 8b3d
00000320: adfe 633d 152d 853d 812d c9bd 5849 1ebd
00000330: 9e3f 403d 6ffa 833d ff79 b93d ebbb a4b8
00000340: ea33 893c a7b3 a4bc b151 cd3d 3fb3 bd3c
00000350: fa55 0d3c 3c90 8f3d c377 49bc 9463 01bd
00000360: 773e ccbc 3ea6 f0bd d996 be3d a8ee 8fbd
00000370: 673f 00be 2478 dcbd 37dd 203d 8a75 a23d
00000380: e3ea ba3d b1f0 bebd 0386 17be 2049 8abc
00000390: e695 5f3d 099f d33c 0863 693d 0a70 15bd
000003a0: 57ca 7f3d fafd 373d 5502 e33c 3b84 7dbc
000003b0: e6ed ef3c 0ef7 e3bd 7cda 3ebe 9b1d a4bd
000003c0: aa0e e13d 12a6 3c3c 7d99 ddbd 86b9 1f3e
000003d0: c2b6 653c 0cdf 1d3d 01c3 9a3d b346 5dbd
000003e0: ee9b 7dbd acbf c4bd fce5 20bc 2d4d 043e
000003f0: 37de 5ebd 6707 223d a868 79bd b184 973d

fc_2.bias f4 [84]
-0.019943034 0.7813922 0.9158263 0.09114431 0.7346809 0.19354221 0.0796192 -0.1262009
0.13109872 0.14725216 0.67693794 1.4093665 0.6535385 0.617246 -0.21150418 1.1202855
0.22334297 0.87296015 0.5112817 1.2658349 0.19519943 0.07242161 1.0104268 0.2866833
0.09133974 0.17833799 0.06674858 -0.08340933 0.14991966 0.18018268 0.29240096 0.22158091
-0.06391421 0.11085595 0.6520769 0.901848 -0.04543102 -0.09819973 0.39298353 0.2535248
0.36777487 0.26378828 0.07935051 1.475836 -0.004427076 0.7612373 0.3006536 0.30012187
0.040237017 -0.15160865 0.13443 0.1628204 0.35545132 1.6306696 0.16762947 -0.022586666
-0.03730278 0.41093752 -0.11183547 0.14156888 1.079135 0.24511667 0.3833041 0.27057862
0.040456966 0.28889206 0.5412101 0.123517305 1.2720292 0.037515774 0.0010652883 0.21476807
-0.006382448 -0.002707634 -0.0058284975 0.39192864 0.10768273 0.95612776 0.039701115 0.95547694
0.09474418 -0.19214337 0.07487141 0.15589406
00000000: 935f a3bc 5209 483f 9873 6a3f dea9 ba3d
00000010: 0c14 3c3f ee2f 463e 640f a33d cf3a 01be
00000020: be3e 063e 45c9 163e ce4b 2d3f 1f66 b43f
00000030: 4d4e 273f d503 1e3f 8d94 58be 8465 8f3f
00000040: 05b4 643e 517a 5f3f 5ce3 023f e106 a23f
00000050: 5ce2 473e c851 943d aa55 813f 27c8 923e
00000060: 5410 bb3d 3c9e 363e 7bb3 883d 83d2 aabd
00000070: 8a84 193e cf81 383e 94b5 953e 1be6 623e
00000080: 74e5 82bd 7208 e33d 83ee 263f 83df 663f
00000090: e115 3abd f11c c9bd 2335 c93e 01ce 813e
000000a0: fd4c bc3e 420f 873e 8582 a23d 32e8 bc3f
000000b0: 0111 91bb 73e0 423f 45ef 993e 93a9 993e
000000c0: 92cf 243d 4c3f 1bbe 05a8 093e 64ba 263e
000000d0: b7fd b53e c8b9 d03f 0fa7 2b3e ac07 b9bc
000000e0: cdca 18bd 6766 d23e ff09 e5bd 6ff7 103e
000000f0: 1821 8a3f ddff 7a3e 6f40 c43e 4889 8a3e
00000100: 34b6 253d a9e9 933e bf8c 0a3f a4f6 fc3d
00000110: dad1 a23f 24aa 193d 25a1 8b3a 29ec 5b3e
00000120: db23 d1bb 8f72 31bb fbfc bebb dfaa c83e
00000130: c388 dc3d cac4 743f a39d 223d 239a 743f
00000140: 3d09 c23d 3bc1 44be 2f56 993d b1a2 1f3e

fc_3.weight f4 [10, 84]
-0.007854988 -0.015322881 -0.1866159 0.074973516 -0.15952471 0.06273674 -0.14896306 0.117598966
-0.02767464 -0.033961896 0.043814797 -0.22526826 -0.2719145 -0.09942001 0.06729417 -0.18518184
-0.07032153 0.12346655 0.23265639 -0.13725635 0.07032687 -0.038303584 0.016091367 0.03788231
0.001737343 -0.08288098 -0.03133049 -0.045222074 -0.016897494 0.05581291 -0.11029322 -0.025645347
0.27499482 0.13337085 0.081189394 -0.07918014 0.068486355 0.17779064 0.028418595 0.057349432
0.0908489 0.03194471 0.0792335 -0.024308454 0.0016149583 0.13431054 -0.15865098 -0.0074651623
-0.043981496 0.04949001 0.25243568 -0.031039776 0.02185049 -0.18707384 -0.15587667 0.10780222
-0.057673424 -0.06757781 -0.03567649 0.0349739 0.05605057 0.10898675 0.014904728 0.03151112
0.15045159 0.1187588 0.18156525 -0.013951798 0.06813103 -0.13806294 0.01169658 0.11537069
0.001336638 0.0030543113 0.004162909 0.039644103 -0.113741435 0.13765319 0.16893792 0.1613681
-0.07797075 -0.05493487 -0.13699593 0.15953064 0.017529959 0.13145785 0.0460344 -0.08999765
-0.22689947 -0.12857975 -0.10629654 -0.029351385 0.015426278 0.10841448 -0.12707923 -0.27297586
0.10691172 0.014294428 0.22622298 -0.30145496 0.017512737 0.23010117 0.085274816 -0.18794264
0.0810707 0.14418651 0.01492941 -0.021902053 -0.005888419 0.17356457 -0.1890178 0.2441845
-0.081532925 0.058226585 0.11366536 0.039154 -0.056022517 -0.1552939 -0.07364818 -0.08602583
0.13414356 -0.05758805 -0.12950791 -0.035536245 0.11951485 -0.10117716 -0.22485942 0.054411594
0.0022315278 -0.053645343 0.19164047 0.041457474 0.024613068 0.25436255 0.039340302 -0.13708015
0.1096208 -0.04154043 0.103851356 -0.010884044 0.08448685 -0.08956895 0.112797625 -0.053650916
-0.21313184 -0.17315911 0.30461642 -0.122137696 -0.076684944 -0.1550862 0.2387775 0.014458687
-0.24178115 -0.13403599 -0.017850451 0.003646568 0.0041454197 -0.016850132 -0.028419483 -0.016940009
0.056020964 -0.16611227 0.03169231 0.12895061 0.14187011 0.18381691 -0.051749717 0.13658929
0.027727647 -0.19210184 -0.014434758 -0.016807172 0.13414657 0.10742825 -0.029375888 -0.14574343
-0.0409683 0.06521877 0.10480475 0.09859467 0.0105298385 0.0484945 -0.0712854 0.03872188
0.011416182 -0.08169977 0.06647521 0.13122071 -0.12699509 -0.0061936234 -0.12832148 0.16542298
0.13309233 0.034389623 0.014307341 0.00849392 0.06422862 -0.13194226 -0.010656314 -0.012601493
0.03743397 -0.027700445 0.03568395 -0.08012749 0.1050842 -0.10989803 0.13609417 0.17017065
-0.04781722 -0.00850678 0.12670161 0.108437754 0.00083218375 -0.070763394 0.045726355 -0.055449154
-0.07167561 -0.02663089 -0.052955955 0.21779273 -0.011016692 0.0126155075 -0.003398061 -0.034869876
-0.08474453 -0.039770715 0.20635891 -0.06935889 0.12017535 0.18042824 -0.10891741 0.18403774
0.050839372 -0.036374077 -0.23002566 -0.060469244 -0.05139857 0.3046733 0.010403129 -0.002463002
0.017498745 0.002628217 0.0056018825 0.040347867 0.10779267 0.09777762 0.015744388 -0.031404816
-0.080203526 0.0181199 -0.09471584 0.09279036 -0.010818851 0.0029496038 0.14452456 -0.107868746
00000000: 35b2 00bc d20c 7bbc 3d18 3fbe b78b 993d
00000010: 725a 23be 1f7c 803d c689 18be bad7 f03d
00000020: edb5 e2bc a11b 0bbd 2577 333d b9ac 66be
00000030: 6138 8bbe b89c cbbd 87d1 893d 4fa0 3dbe
00000040: bc04 90bd 08dc fc3d 7a3d 6e3e ee8c 0cbe
00000050: 8907 903d 38e4 1cbd 0bd2 833c 7b2a 1b3d
00000060: 8fb7 e33a 81bd a9bd 6654 00bd c83a 39bd
00000070: 9d6c 8abc 149c 643d 69e1 e1bd 3116 d2bc
00000080: 1fcc 8c3e 5e92 083e a046 a63d 3229 a2bd
00000090: 9342 8c3d c00e 363e 1dce e83c 3de7 6a3d
000000a0: fd0e ba3d 75d8 023d 2c45 a23d 8622 c7bc
000000b0: 02ad d33a b488 093e 6775 22be 529e f4bb
000000c0: f125 34bd 09b6 4a3d 403f 813e 2147 febc
000000d0: ccff b23c 4990 3fbe 229e 1fbe 69c7 dc3d
000000e0: f83a 6cbd 3c66 8abd 8321 12bd cb40 0f3d
000000f0: 4895 653d 7234 df3d f632 743c ce11 013d
00000100: fb0f 1a3e d037 f33d 3eec 393e 1596 64bc
00000110: 4888 8b3d 5f60 0dbe 03a3 3f3c 7847 ec3d
00000120: 2132 af3a d72a 483b 0369 883b db61 223d
00000130: 45f1 e8bd f5f4 0c3e 10fe 2c3e ae3d 253e
00000140: 21af 9fbd 6303 61bd a948 0cbe 005c 233e
00000150: fd9a 8f3c e39c 063e 918e 3c3d b050 b8bd
00000160: 5658 68be 69aa 03be 00b2 d9bd 5172 f0bc
00000170: 80be 7c3c 6908 de3d 0f21 02be 7ec3 8bbe
00000180: 88f4 da3d 2d33 6a3c ffa6 673e 4e58 9abe
00000190: df76 8f3c a49f 6b3e 90a4 ae3d 0974 40be
000001a0: 6508 a63d a1a5 133e 7c9a 743c ef6b b3bc
000001b0: a4f3 c0bb e9ba 313e e28d 41be 800b 7a3e
000001c0: bcfa a6bd 007f 6e3d 62c9 e83d f25f 203d
000001d0: de77 65bd 5d05 1fbe dbd4 96bd 4f2e b0bd
000001e0: ee5c 093e 72e1 6bbd b99d 04be 748e 11bd
000001f0: 34c4 f43d f935 cfbd 8c41 66be b1de 5e3d
00000200: d33e 123b 38bb 5bbd 663d 443e 50cf 293d
00000210: 58a1 c93c cf3b 823e 4c23 213d bd5e 0cbe
00000220: df80 e03d 4c26 2abd 05b0 d43d fd52 32bc
00000230: 7107 ad3d ed6f b7bd 7102 e73d 10c1 5bbd
00000240: 3c3f 5abe 9f50 31be aff6 9b3e 5423 fabd
00000250: ff0c 9dbd ebce 1ebe 1782 743e 21e4 6c3c
00000260: 7a95 77be bb40 09be 1c3b 92bc 42fb 6e3b
00000270: 4dd6 873b 4a09 8abc facf e8bc c6c5 8abc
00000280: 3d76 653d 5619 2abe cccf 013d a10b 043e
00000290: 6646 113e 803a 3c3e 83f7 53bd 10de 0b3e
000002a0: 1725 e33c 58b6 44be c37f 6cbc 32af 89bc
000002b0: b85d 093e 5803 dc3d b4a5 f0bc c43d 15be
000002c0: 60ce 27bd 6b91 853d dfa3 d63d 01ec c93d
000002d0: 5885 2c3c 2ba2 463d 14fe 91bd d69a 1e3d
000002e0: f00a 3b3c 3652 a7bd 2824 883d b95e 063e
000002f0: 000b 02be e1f3 cabb b566 03be a464 293e
00000300: 5b49 083e 22dc 0c3d 5669 6a3c 152a 0b3c
00000310: 4b8a 833d df1b 07be d297 2ebc 7e76 4ebc
00000320: 5d54 193d 0bec e2bc 5529 123d e219 a4bd
00000330: 6336 d73d 3812 e1bd 455c 0b3e 3741 2e3e
00000340: fddb 43bd 0560 0bbc 11be 013e 9d14 de3d
00000350: e826 5a3a 66ec 90bd 8f4b 3b3d a71e 63bd
00000360: aaca 92bd 0629 dabc 58e8 58bd 0f05 5f3e
00000370: 5b7f 34bc 46b1 4e3c 01b2 5ebb b7d3 0ebd
00000380: 8a8e adbd 9ee6 22bd c04f 533e 090c 8ebd
00000390: 7e1e f63d 2ec2 383e 1710 dfbd 6474 3c3e
000003a0: f23c 503d fcfc 14bd d98b 6bbe 99ae 77bd
000003b0: 4f87 52bd 24fe 9b3e e371 2a3c 516a 21bb
000003c0: 8759 8f3c 2a3e 2c3b ff8f b73b ce43 253d
000003d0: 67c2 dc3d a23f c83d 60fa 803c 56a2 00bd
000003e0: bf41 a4bd 2f70 943c 61fa c1bd df08 be3d
000003f0: 8d41 31bc 244e 413b 3ffe 133e 4aea dcbd

fc_3.bias f4 [10]
-0.19329782 -0.944833 0.22341497 0.63207054 0.4557168 -0.19527829 0.092629366 0.11372293
-0.044239532 -0.13786042
00000000: ddef 45be 93e0 71bf e5c6 643e 60cf 213f
00000010: b653 e93e 08f7 47be 77b4 bd3d 91e7 e83d
00000020: 8334 35bd 482b 0dbe

momentum_buffer f4 [6, 3, 5, 5]
-0.07870383 -0.06928607 -0.010673205 0.02515167 -0.03408339 -0.02898075 -0.058781102 -0.05048562
0.04581797 0.029904556 -0.00011225324 -0.06117783 -0.097612984 -0.012700102 0.03072305 0.03072942
-0.015118523 -0.0755066 -0.06984895 0.0017545528 0.081559084 0.103713475 0.04280737 -0.010202352
0.035614755 -0.06119565 -0.05742055 0.0012911912 0.017644767 -0.059283763 0.0033761493 -0.025223317
-0.01759966 0.0545208 0.012521453 0.037408173 -0.028423818 -0.062711075 0.0023680506 0.018845089
0.05431661 0.0062459838 -0.043851238 -0.039437227 0.010881642 0.11115015 0.12982747 0.07736082
0.027695859 0.061344586 -0.041280724 -0.027154632 0.026097262 0.03205522 -0.023038214 0.006758362
-0.023918245 -0.015065394 0.050515994 0.035583913 0.038780395 -0.040637836 -0.069107965 0.008095851
0.041788567 0.06495961 0.008787663 -0.04464687 -0.027476855 0.030999701 0.11726692 0.12886825
0.07507182 0.03577007 0.085001945 0.025982574 0.049101964 0.021686047 0.018047847 0.0039022788
-0.0055357665 0.012323096 -0.027503826 -0.047612444 -0.09217596 -0.042433865 -0.02636724 -0.04776843
-0.1034665 -0.12265517 -0.09022514 -0.09577545 -0.10781251 -0.17595592 -0.1819747 0.004432097
-0.020252869 -0.04187052 -0.10636358 -0.1182741 0.038041137 0.06744645 0.031471305 0.01600729
0.005937025 0.012626171 0.039897308 -0.004391946 -0.030899435 -0.07169902 -0.021980949 0.013828799
-0.018003985 -0.06777013 -0.08329947 -0.07057105 -0.05542884 -0.07138823 -0.1271081 -0.1358155
0.0069528073 -0.0064141005 -0.023194775 -0.0798602 -0.10928424 -0.010128945 0.024454325 -0.0154368
-0.030817434 -0.04376849 -0.03883683 -0.013957903 -0.061585072 -0.086614765 -0.12945208 -0.085122794
-0.058811046 -0.104116924 -0.14095715 -0.16297126 -0.1513357 -0.14283726 -0.1830788 -0.22400327
-0.23063871 -0.11176155 -0.12513556 -0.15708849 -0.2074178 -0.22440405 -0.002054304 -0.042779222
-0.07101624 -0.10900651 -0.07167333 0.039291024 0.020113483 -0.029575441 -0.06499249 -0.015729388
0.021059135 -0.003988523 -0.051905893 -0.05308335 -0.010476515 0.008837521 -0.021709234 -0.025914153
-0.01635636 0.031455405 0.0263935 0.0034614615 0.0052374005 -0.0016738772 0.055108804 -0.035867974
-0.06085092 -0.07293197 -0.09911685 -0.043528546 0.004596103 0.0010700375 -0.036385775 -0.0644624
0.0014743134 -0.013815567 -0.023337848 -0.057830002 -0.050211504 0.006643921 -0.034612067 -0.044626545
-0.03663034 -0.02216756 0.050939098 -0.017171808 -0.013180535 -0.003392607 -0.002660457 0.07596427
0.06996387 0.043186 0.032975752 0.017519694 0.068105325 0.09767264 0.10105259 0.071011394
0.039279364 0.093830414 0.06594564 0.07014811 0.038531918 0.03623029 0.076313384 0.05047217
0.03518749 0.03409954 0.03940628 0.08143315 0.05815976 0.050953686 0.050425597 0.039013095
0.09229054 0.020310756 -0.013303041 -0.06425839 -0.058475383 -0.025024114 0.0151024535 -0.009750951
-0.0621828 -0.052720536 -0.030858215 -0.008292384 -0.023265507 -0.051740617 -0.04723257 -0.022916429
-0.060159717 -0.067058384 -0.077119306 -0.06304459 -0.044028994 -0.13442165 -0.14702281 -0.16743535
-0.13023598 -0.11979464 0.005956378 -0.0029016025 -0.030764299 -0.022661563 0.0159646 0.023494992
00000000: 792f a1bd dbe5 8dbd abde 2ebc e00a ce3c
00000010: 069b 0bbd 0a69 edbc 74c4 70bd 02ca 4ebd
00000020: a0ab 3b3d 66fa f43c 8069 ebb8 9b95 7abd
00000030: 51e9 c7bd 1714 50bc e8ae fb3c 44bc fb3c
00000040: aeb3 77bc 34a3 9abd f70c 8fbd 06f9 e53a
00000050: 7308 a73d bb67 d43d c856 2f3d c427 27bc
00000060: c7e0 113d 4aa8 7abd d031 6bbd 303d a93a
00000070: c28b 903c 88d3 72bd 6342 5d3b 21a1 cebc
00000080: 2a2d 90bc 3451 5f3d c826 4d3c 5039 193d
00000090: 11d9 e8bc aa6e 80bd 4c31 1b3b 0461 9a3c
000000a0: 187b 5e3d 1cab cc3b 5b9d 33bd ee88 21bd
000000b0: ea48 323c b1a2 e33d 7ef1 043e 596f 9e3d
000000c0: 6de2 e23c 7644 7b3d fa15 29bd 6473 debc
000000d0: edc9 d53c 564c 033d a3ba bcbc 4075 dd3b
000000e0: 32f0 c3bc d8d4 76bc dce9 4e3d 70c0 113d
000000f0: 31d8 1e3d dc73 26bd 7a88 8dbd 76a4 043c
00000100: 7d2a 2b3d 8b09 853d 21fa 0f3c a3df 36bd
00000110: 2417 e1bc 16f3 fd3c a429 f03d 0af6 033e
00000120: 41bf 993d a383 123d 8015 ae3d 68d9 d43c
00000130: 241f 493d f0a6 b13c 14d9 933c 60bd 7f3b
00000140: 6065 b5bb d0e6 493c b44f e1bc 4405 43bd
00000150: c0c6 bcbd 22cf 2dbd 1c00 d8bc d4a8 43bd
00000160: 3fe6 d3bd a232 fbbd f5c7 b8bd eb25 c4bd
00000170: cecc dcbd ca2d 34be 9357 3abe 203b 913b
00000180: 58e9 a5bc 6c80 2bbd 26d5 d9bd b139 f2bd
00000190: 06d1 1b3d 5d21 8a3d 0ee8 003d b821 833c
000001a0: 608b c23b 00de 4e3c 5c6b 233d 50ea 8fbb
000001b0: d020 fdbc f0d6 92bd 6411 b4bc 3092 623c
000001c0: 187d 93bc 11cb 8abd ea98 aabd 8e87 90bd
000001d0: 5a09 63bd fe33 92bd a028 02be 3813 0bbe
000001e0: 60d4 e33b 602d d2bb f802 bebc bf8d a3bd
000001f0: 6ad0 dfbd e0f3 25bc 7054 c83c a2ea 7cbc
00000200: d874 fcbc 9746 33bd 5e13 1fbd b0af 64bc
00000210: a140 7cbd 1563 b1bd 168f 04be dc54 aebd
00000220: dae3 70bd 413b d5bd 1257 10be f0e1 26be
00000230: bff7 1abe ee43 12be 0279 3bbe 1d61 65be
00000240: 8e2c 6cbe 3de3 e4bd 8923 00be cedb 20be
00000250: 5565 54be 2dca 65be 80a1 06bb 4439 2fbd
00000260: f670 91bd ce3e dfbd 78c9 92bd a0ef 203d
00000270: 08c5 a43c 3248 f2bc c81a 85bd ebda 80bc
00000280: 3584 ac3c 28b2 82bb 469b 54bd ed6d 59bd
00000290: b0a5 2bbc 40cb 103c 90d7 b1bc eb49 d4bc
000002a0: c6fd 85bc 62d7 003d 2e37 d83c b0d9 623b
000002b0: 809e ab3b 0066 dbba c5b9 613d 4cea 12bd
000002c0: d03e 79bd 5b5d 95bd c6fd cabd fd4a 32bd
000002d0: e89a 963b 8040 8c3a 4009 15bd dd04 84bd
000002e0: c03d c13a b05a 62bc 042f bfbc 27df 6cbd
000002f0: 94aa 4dbd 40b5 d93b 62c5 0dbd 53ca 36bd
00000300: b209 16bd be98 b5bc 84a5 503d e4ab 8cbc
00000310: 2cf3 57bc 8056 5ebb 105b 2ebb 2893 9b3d
00000320: 3849 8f3d cee3 303d 9511 073d 7685 8f3c
00000330: ce7a 8b3d 9808 c83d a9f4 ce3d 6c6e 913d
00000340: 66e3 203d 292a c03d 820e 873d d0a9 8f3d
00000350: a5d3 1d3d 3666 143d 314a 9c3d e8bb 4e3d
00000360: c220 103d f6ab 0b3d 7b68 213d 6cc6 a63d
00000370: ee38 6e3d d0b4 503d 128b 4e3d 32cc 1f3d
00000380: d302 bd3d be62 a63c 00f5 59bc e799 83bd
00000390: e283 6fbd 5fff ccbc 4870 773c 74c2 1fbc
000003a0: 64b3 7ebd 7df1 57bd 5eca fcbc c8dc 07bc
000003b0: 4e97 bebc f8ed 53bd f076 41bd 3cbb bbbc
000003c0: 096a 76bd e855 89bd baf0 9dbd 861d 81bd
000003d0: bf57 34bd d4a5 09be 268d 16be 2c74 2bbe
000003e0: 955c 05be e456 f5bd b82d c33b d028 3ebb
000003f0: 6905 fcbc bea4 b9bc 31c8 823c 9278 c03c

momentum_buffer f4 [6]
0.086179264 -0.15534475 -0.09793672 -0.05108197 0.07952647 -0.06842995
00000000: c17e b03d b212 1fbe 0c93 c8bd 543b 51bd
00000010: c6de a23d 0025 8cbd

momentum_buffer f4 [16, 6, 5, 5]
0.043107007 0.064660385 0.050214685 0.036028028 0.0043910984 0.040988766 0.021722909 0.004046917
0.026745595 -0.045475386 0.058083877 -0.0030861683 -0.0071385 -0.029876389 -0.026499072 0.051270496
0.047246337 -0.015447173 -0.02273109 -0.011804968 0.067826204 0.09333223 0.045633487 -0.0043408927
-0.011616644 0.028186636 0.043849554 0.04739233 0.06957412 -0.035783064 0.08859068 0.001727365
0.060076106 0.05412575 -0.016196065 0.0440918 0.02442292 0.07093863 0.02294707 0.045948267
0.016324803 0.029818892 0.05465191 0.051993847 0.003155469 0.02350892 0.04228754 0.06803256
0.06611242 0.0072114193 0.068673186 0.01724822 0.026567692 0.08050425 0.017651534 0.06273114
0.0126207 0.08556813 0.025043735 0.053030606 0.0077307606 0.03529894 0.025263239 0.024486221
0.06035853 -0.02010915 0.05383035 0.072210096 0.036965024 0.06523237 0.039967727 0.050285466
0.02525991 0.020176154 0.055512823 -0.010504705 -0.0074392743 0.0046757776 -0.015426169 -0.0037682597
0.0016948982 -0.00889974 -0.0025798976 -0.030904055 -0.019944755 -0.00065266644 0.012417152 -0.004622296
0.002857066 0.0043029194 0.013147308 0.023310985 0.0137784 0.022327315 0.019975746 0.021702463
0.04111877 0.028182607 0.029665366 0.029650934 0.03358009 0.025836922 0.010083716 0.008468788
0.01739021 0.063554116 0.07631076 0.029376734 0.029354813 0.045444865 0.07355794 0.06538122
0.07781937 0.04841682 0.052657917 0.03737659 0.039642584 0.09002267 0.05148021 0.07873364
0.010862391 0.021102808 0.028830342 0.050294146 0.0632566 0.017186098 -0.0092963725 -0.0071164686
0.00031133927 -0.015674379 0.036010526 0.025836252 0.034617692 0.034839615 0.0017656069 0.018063847
0.018276593 0.03131578 0.02315929 0.00027946383 0.0087950565 0.033020448 0.026151193 0.017306326
0.022355227 -0.0067528104 0.023669155 0.017645387 0.027275762 0.03540449 0.07975383 0.109438
0.10496642 0.10248939 0.060120806 0.058752593 0.07064328 0.12149957 0.07096471 0.06487926
0.07909371 0.06601847 0.10458799 0.08977601 0.040521722 0.063980386 0.109443836 0.10662596
0.11184533 0.082286395 0.047918867 0.051223148 0.11465395 0.14718238 0.09672108 0.13284886
0.08634463 0.10582819 0.103858404 0.0012953244 0.06805444 0.037104424 0.08956817 0.06300621
-0.0048436224 0.04188466 0.04734338 0.008389875 0.026157968 -0.005341124 0.058673944 0.036617145
0.04153771 0.061890993 0.02756279 0.06074979 0.038088504 0.038032964 0.07210612 -0.012554895
0.049664017 0.0480683 0.06459035 -0.0055820346 0.05516804 0.057546034 0.008076511 0.06323203
0.037546806 0.0608882 0.016311472 0.037557904 0.055071868 0.05059226 0.072944954 0.041043993
0.027568307 0.03561319 0.012082219 0.034678657 0.017405339 0.040565863 0.07884658 0.089142986
0.03611655 -0.0003501624 -0.020302545 -0.040864527 -0.03309708 0.0016414672 0.024494357 -0.0077516995
-0.045544498 -0.048493862 0.0045720935 0.0028091632 0.0010377467 -0.023691282 -0.03525493 0.0058334544
-0.006124288 -0.014364224 -0.006488066 -0.014015578 0.006864555 -0.03629792 -0.015192598 -0.001119785
0.0033881515 0.01130373 0.08391405 0.092033155 0.06779097 0.039825983 0.03975457 0.08625077
00000000: f990 303d aa6c 843d eaad 4d3d 2092 133d
00000010: 34e3 8f3b d6e3 273d 3ef4 b13c 009c 843b
00000020: 9419 db3c 6644 3abd 5ce9 6d3d 5041 4abb
00000030: 14ea e9bb 54bf f4bc 9514 d9bc 0301 523d
00000040: 6085 413d 2416 7dbc 8d36 babc a069 41bc
00000050: 77e8 8a3d f824 bf3d 2eea 3a3d 0c3e 8ebb
00000060: bd53 3ebc a9e7 e63c 979b 333d 761e 423d
00000070: e07c 8e3d 4391 12bd 086f b53d c068 e23a
00000080: 5d12 763d f6b2 5d3d 9cad 84bc 9a99 343d
00000090: 9312 c83c 4648 913d 7efb bb3c 4034 3c3d
000000a0: 98bb 853c c046 f43c aeda 5f3d 80f7 543d
000000b0: fccb 4e3b c795 c03c b335 2d3d a854 8b3d
000000c0: f365 873d c54d ec3b 87a4 8c3d 244c 8d3c
000000d0: 7da4 d93c 6adf a43d f399 903c 2f79 803d
000000e0: 0dc7 4e3c 583e af3d 8528 cd3c 9f36 593d
000000f0: 5252 fd3b 9f95 103d daf4 ce3c 5497 c83c
00000100: 823a 773d f2bb a4bc 377d 5c3d e3e2 933d
00000110: a368 173d 8c98 853d 33b5 233d 22f8 4d3d
00000120: dfed ce3c 7648 a53c 6a61 633d ed1b 2cbc
00000130: 28c5 f3bb 4437 993b 0bbe 7cbc e8f4 76bb
00000140: 5927 de3a 37d0 11bc 8013 29bb 802a fdbc
00000150: 2f63 a3bc b417 2bba 4f71 4b3c a176 97bb
00000160: 9d3d 3b3b 81ff 8c3b ce67 573c aef6 be3c
00000170: ccbe 613c c6e7 b63c 2da4 a33c 5dc9 b13c
00000180: 286c 283d 36df e63c c804 f33c 84e6 f23c
00000190: 478b 093d f4a7 d33c 2c36 253c acc0 0a3c
000001a0: ea75 8e3c a928 823d d148 9c3d 7aa7 f03c
000001b0: 8179 f03c 6524 3a3d 8ca5 963d 97e6 853d
000001c0: c35f 9f3d b750 463d d4af 573d 3218 193d
000001d0: 4360 223d ce5d b83d eadc 523d 1a3f a13d
000001e0: 2cf8 313c ccdf ac3c 9c2d ec3c 3c01 4e3d
000001f0: ad8c 813d dcc9 8c3c d04f 18bc 4431 e9bb
00000200: 403b a339 8e67 80bc c67f 133d 8ca6 d33c
00000210: 48cb 0d3d fcb3 0e3d f06b e73a a2fa 933c
00000220: cbb8 953c fa44 003d 8db8 bd3c 0085 9239
00000230: 2419 103c 7340 073d 073b d63c ffc5 8d3c
00000240: 4f22 b73c ae46 ddbb d1e5 c13c 0f8d 903c
00000250: 6b71 df3c 4c04 113d fa55 a33d 0821 e03d
00000260: a2f8 d63d f5e5 d13d 3c41 763d 8fa6 703d
00000270: 6dad 903d c4d4 f83d f255 913d 6bdf 843d
00000280: e2fb a13d b134 873d 3a32 d63d 7cdc b73d
00000290: 1bfa 253d 2608 833d 1724 e03d b65e da3d
000002a0: 2a0f e53d c585 a83d 9346 443d 5dcf 513d
000002b0: b1cf ea3d fab6 163e b415 c63d 8809 083e
000002c0: 74d5 b03d 73bc d83d b7b3 d43d e0c7 a93a
000002d0: 2060 8b3d cffa 173d 846f b73d 6609 813d
000002e0: 40b7 9ebb 408f 2b3d 22eb 413d b075 093c
000002f0: 3c49 d63c 9804 afbb 1754 703d dcfb 153d
00000300: 7223 2a3d 6981 7d3d 5ccb e13c c6d4 783d
00000310: b102 1c3d 74c8 1b3d 60ac 933d 0cb3 4dbc
00000320: 7f6c 4b3d 44e3 443d f247 843d 80e9 b6bb
00000330: e2f7 613d 64b5 6b3d 5853 043c cb7f 813d
00000340: aeca 193d e865 793d a39f 853c 51d6 193d
00000350: 0a93 613d d439 4f3d 2a64 953d bf1d 283d
00000360: eed6 e13c 23df 113d 80f4 453c 350b 0e3d
00000370: a495 8e3c 6428 263d 517a a13d 9990 b63d
00000380: f3ee 133d 0096 b7b9 8651 a6bc 9061 27bd
00000390: ce90 07bd 8026 d73a 64a8 c83c f801 febb
000003a0: de8c 3abd 80a1 46bd 80d1 953b f019 383b
000003b0: 0005 883a 3814 c2bc 7967 10bd 9026 bf3b
000003c0: 40ae c8bb ec57 6bbc d899 d4bb 98a1 65bc
000003d0: 10f0 e03b 21ad 14bd 60ea 78bc c0c5 92ba
000003e0: c00b 5e3b 4833 393c 21db ab3d e17b bc3d
000003f0: fed5 8a3d 9220 233d b0d5 223d 3ea4 b03d

momentum_buffer f4 [16]
0.015556002 0.049781345 -0.0014392133 -0.016026739 0.006740432 -0.004854098 -0.02054135 -0.0017719883
0.018742297 -0.022236869 0.002771549 0.0009041093 -0.0042956714 -0.005196669 0.017255336 -0.003447204
00000000: 9ade 7e3c 86e7 4b3d fca3 bcba 824a 83bc
00000010: d8de dc3b 200f 9fbb 5546 a8bc 1042 e8ba
00000020: 7289 993c 182a b6bc e0a2 353b c001 6d3a
00000030: b4c2 8cbb d248 aabb 105b 8d3c 7cea 61bb
