CIFAR-ZOO0/experiments/cifar10/lenet/lenet_best.pth.tar (torch_old, 499275 bytes, 20 tensors)

conv_1.weight f4 [6, 3, 5, 5]
000000 83 a5 a9 3e 13 4f 71 3e e8 3e 1f 3f e7 d1 1e 3d
       0.33134088 0.2356532 0.6220536 0.038774397
000010 cf 76 27 ba 7b 6f 48 3e c1 05 bc be 90 f3 d2 3d
       -0.00063882483 0.19573776 -0.3672314 0.10300362
000020 5a b9 26 3f c9 c9 65 3d 52 21 3d 3e 71 22 9f be
       0.65126574 0.05610064 0.18469742 -0.31080964
000030 f4 37 83 bf 1c 24 d4 3d 07 3a 1a 3f 61 06 9c 3e
       -1.025145 0.1035845 0.6024479 0.30473617
000040 16 b2 1e 3e 6c 26 40 be 7d 59 1a bf 8e 8f 09 3f
       0.15497622 -0.18764657 -0.602928 0.5373467
000050 0a 92 d4 be f0 bb f5 be 9b be 08 be cf ba c3 be
       -0.4151767 -0.47994947 -0.1335396 -0.3822846
000060 7b 0e 3c 3e a0 10 b1 be df a7 34 be 1e c1 02 bc
       0.18364899 -0.34582996 -0.17642163 -0.007980613
000070 4e 84 5f 3e 6d eb 97 bd bc a6 6a be f5 5c 7b be
       0.21827814 -0.07417951 -0.22915167 -0.24547179
000080 05 87 8b be e2 ba 1e 3f fb 9d a0 3d 70 da 0d be
       -0.2725145 0.6200391 0.078426324 -0.13852859
000090 f7 3e 18 be 3c 17 a0 bf a4 85 d8 be 28 9f a2 3e
       -0.14867769 -1.250709 -0.4228946 0.31762052
0000a0 e7 4e 41 3e da d5 97 3e 47 82 87 3d a8 d5 4f bf
       0.18877755 0.29655343 0.06616645 -0.8118539
0000b0 f5 43 b1 bc 0a dc a8 3e 74 ab ee 3d 88 19 94 3e
       -0.02163885 0.32980376 0.11653796 0.2892573
0000c0 e6 14 be bd 87 dd 00 bf fe f4 c8 3d 04 3b 07 be
       -0.0928133 -0.50338024 0.098123536 -0.13206106
0000d0 4b d1 47 be 57 69 a1 be 32 16 ed bd a8 31 d0 3c
       -0.19513433 -0.3152568 -0.11576499 0.025414303
0000e0 90 1b 79 3d cf 87 a4 3d 2d 4d 7a 3e 80 ab de bd
       0.0608173 0.08033716 0.24443503 -0.10872555
0000f0 68 8c ef bd 68 27 90 3e 83 57 b8 be c0 2d 33 3d
       -0.11696702 0.28155065 -0.36004266 0.043744802
000100 f7 4f 4b 3e 62 84 33 be 3d 91 70 3e 41 da b0 3e
       0.19854723 -0.17530969 0.23492904 0.34541515
000110 39 09 27 bf 75 bd a7 bd b0 39 5e 3d d9 0f 2f 3e
       -0.6524845 -0.08190433 0.054254234 0.17095889
000120 df 7d 16 3f 84 da 9f 3e ed 3a b9 3c 70 95 c9 bd
       0.58785814 0.31221402 0.022611106 -0.09842956
000130 ee 59 0b 3d ea 08 82 3e 91 38 86 3d 04 93 d7 bd
       0.03402131 0.25397426 0.06553758 -0.10526088
000140 cd bb 95 be a7 ec d0 3d cf 54 84 3e 68 fc 44 3e
       -0.29244843 0.10201388 0.25845954 0.1923691
000150 cc 49 96 be 81 03 d0 be 7f 5a 06 3f 49 81 0a bf
       -0.29353178 -0.40627673 0.52481836 -0.54103523
000160 a9 7e 89 3f 49 13 4a bf 4d dd 0e bf f1 3f 7f 3f
       1.0741779 -0.78935677 -0.5580643 0.9970694
000170 7c 55 ca bf c0 c5 be 3f a5 f5 4b bf d7 16 3a bd
       -1.5807338 1.4904099 -0.796717 -0.045431938
000180 8c 67 58 3f b7 f2 36 bf 89 6e 36 3f 85 23 73 be
       0.84533 -0.71464103 0.71262413 -0.23744018
000190 ff c8 10 3e 1e b9 d7 bd b9 3f ce be 0c 81 87 be
       0.14139174 -0.10533355 -0.40282992 -0.26465642
0001a0 1d 6a a6 3e c9 82 d2 3e 0e 92 58 bd 9c 36 18 bf
       0.32502833 0.41115406 -0.052873664 -0.5945833
0001b0 5a d9 f3 bd 24 b6 15 3f c7 c0 19 3f eb 66 3e 3e
       -0.11906691 0.5848105 0.6005978 0.18593948
0001c0 d6 68 eb bf f4 71 02 3f dc 10 da 3e af 76 04 3f
       -1.8391368 0.5095513 0.42590988 0.51743597
0001d0 f3 15 86 3f c6 f0 0e c0 a5 fc 90 3f 9d 0e e3 3e
       1.0475448 -2.2334456 1.1327101 0.44347087
0001e0 ff c4 cd 3d 54 26 60 3e 19 e1 c1 bf 77 c0 ee 3d
       0.1004734 0.21889621 -1.5146819 0.116578035
0001f0 ef 9b 3c 3e 79 fe 94 bd eb 8a 04 bd 7e 67 8e 3e
       0.18418859 -0.07275099 -0.032359045 0.27813333
000200 10 b5 b6 3d 33 25 4d be b3 67 d7 bd cd 22 4e 3c
       0.08921254 -0.20033722 -0.10517826 0.012581539
000210 7b d6 aa bc a5 3c 3a 3e 94 5d 72 be b4 9d fe bd
       -0.020854225 0.18187197 -0.2366851 -0.12432423
000220 77 e8 06 3f ce a9 6c bf bd c6 79 3f 3e 63 c1 be
       0.52698463 -0.924466 0.97568876 -0.37771028
000230 e9 1a d5 be a6 63 91 3f 58 16 e8 bf b9 c7 b2 3f
       -0.41622093 1.1358535 -1.8131819 1.39672
000240 10 ce cd be 85 65 49 bd 55 e0 4c 3f 56 6d 98 bf
       -0.40196276 -0.049169082 0.80029804 -1.1908367
000250 e1 65 2f 3f 1f b2 8e bb fb 0b 11 be 26 f9 80 be
       0.6851483 -0.00435473 -0.14164726 -0.25190085
000260 5c 0e a9 bd 2a 8e 31 3d f3 b8 86 3e 24 1b 98 be
       -0.08254692 0.04334847 0.2631298 -0.29708207
000270 32 59 5a 3e 61 05 1e bf e7 ff cd 3e 5e 38 00 3f
       0.21323088 -0.6172696 0.402343 0.5008601
000280 d8 ba 43 be e5 17 1f bf ef 13 46 3f dd 60 a5 3f
       -0.19114244 -0.62145835 0.77374166 1.2920185
000290 e4 c1 83 bf 0c 1b 98 3e b2 26 bf 3e 1f c0 9d 3f
       -1.0293546 0.29708135 0.3733421 1.2324256
0002a0 70 2c 0f c0 20 ef 95 3d 17 4c 0b bd a9 55 d2 3e
       -2.2370872 0.07321 -0.03400811 0.4108098
0002b0 ca 0f 7f bf ee 4c 6b 3e 7f 20 1d 3f 46 8b 97 3e
       -0.9963347 0.22978565 0.6137771 0.29598445
0002c0 4f 50 8f 3e 26 80 9f 3e a3 5d 50 3e 7d b9 22 bf
       0.27990958 0.31152457 0.2034822 -0.6356428
0002d0 93 1a cc 3e b0 d5 26 3f 4e 9e 09 bf fe d9 d2 3c
       0.39864025 0.6516981 -0.5375718 0.025738712
0002e0 6e eb c1 be 1d 4c 05 3f 2f 3b 0c bf ca e4 44 3e
       -0.3787493 0.52069265 -0.54777807 0.19227901
0002f0 6c 0e bd 3e d9 b3 8c bf df 5d 1c 3f 0f cf 12 3d
       0.36925066 -1.0992385 0.61080736 0.035841998
000300 ab d6 1a 3f 61 33 1b c0 e8 12 84 3f ea 7c 3b bf
       0.6048381 -2.425011 1.031827 -0.7323748
000310 8d e1 fa be e0 0d b0 bf 40 a5 22 3f 7c a6 c9 3f
       -0.49000207 -1.3754234 0.635334 1.5753932
000320 bf 54 d3 be 07 fc 98 be 1c bc e6 bd e1 19 cc 3e
       -0.41275594 -0.29879782 -0.11266348 0.39863494
000330 c0 f0 96 3c 6e 0d c4 be 8f cf ab 3e df 9a 02 bf
       0.018425345 -0.38291496 0.33556792 -0.51017565
000340 e3 a3 f2 3e 04 26 9a 3c 4d dd 7c be 33 5c eb be
       0.4739066 0.018816955 -0.24693795 -0.4596878
000350 b0 19 37 3f cf b8 aa 3f fd e4 4d bf bb 30 65 3e
       0.7152357 1.3337649 -0.80427533 0.2238187
000360 03 9f b3 3e 22 e9 9b 3f 86 56 03 c0 8a a2 f8 bd
       0.35082254 1.2180521 -2.052156 -0.12140377
000370 8f f4 37 3e 11 01 f2 3e 2d aa 4c bf 61 15 4f 3e
       0.17964385 0.4726644 -0.7994717 0.20222999
000380 ca d4 b1 3e a9 06 18 3f 21 d6 5e 3e 8a b9 d4 3e
       0.34732658 0.5938516 0.21761371 0.41547805
000390 d9 8e 5e 3d ee ba 0a 3f c6 df 12 3f 13 32 ae bd
       0.05433545 0.5419148 0.573727 -0.08505645
0003a0 a7 a3 d8 3d e0 c3 52 bf 0b e3 90 3c e1 72 16 be
       0.10578089 -0.8233013 0.017686388 -0.1469226
0003b0 93 ea 55 bf 91 d4 31 bf 40 74 79 bf 77 aa 77 be
       -0.83561057 -0.69464976 -0.9744301 -0.24186121
0003c0 df 5b 7b 3e cf 82 2e bf ae f6 0e bf 66 14 02 bf
       0.24546765 -0.6816835 -0.55845153 -0.50812376
0003d0 42 63 ea 3e fa 97 91 3f 77 d8 a0 3d 32 08 04 bf
       0.45778853 1.1374505 0.078537874 -0.51575005
0003e0 a8 7b 79 be 50 6c 19 3f 95 e5 6c be 5b a1 f3 be
       -0.24363577 0.59930897 -0.23134454 -0.47584042
0003f0 cc bc 9f be 25 37 46 bd 05 c2 9a be f2 e2 7d be
       -0.31198728 -0.048392434 -0.3022615 -0.24793604

conv_1.bias f4 [6]
000000 94 40 86 be ee 7f a3 be e4 8d 1f bf fd 23 6e 3d
       -0.26221144 -0.3193354 -0.6232588 0.05813979
000010 30 32 51 3e 4b d6 1d bf
       0.20429301 -0.6165511

conv_2.weight f4 [16, 6, 5, 5]
000000 97 4a c2 bd 14 e3 9e 3d 90 ea b1 bc 5e ce ed bc
       -0.09486883 0.077581555 -0.021718293 -0.029029068
000010 87 07 37 3e 97 7e ae bd 7c e0 61 be 08 61 09 3d
       0.17873965 -0.08520239 -0.2205829 0.0335398
000020 d5 37 bc 3d 03 9e 78 bd 6a fb c9 3d 0e d5 ad be
       0.091903366 -0.060697567 0.098624066 -0.3395161
000030 83 a7 76 3e 6f 6b 9b 3c 48 85 bf bc 34 50 43 3c
       0.24087338 0.018972127 -0.023378983 0.011920977
000040 bd 15 1c 3f cd 68 3b be 4b 75 95 3c 81 bb 11 be
       0.6097067 -0.18301697 0.018244406 -0.14231683
000050 31 51 88 3b c3 a7 93 be 8c 4d 14 be 8f b4 a3 be
       0.0041600694 -0.2883893 -0.14482707 -0.31973693
000060 4f 7f ba be 02 3a 15 be ef 4d 99 3d e5 45 d9 bd
       -0.36425254 -0.1457291 0.07485568 -0.106090344
000070 43 24 0b 3e 53 f6 fc 3b 5a e4 a3 3e 5c 92 0d be
       0.13588051 0.007719794 0.32010156 -0.13825363
000080 b0 bc f1 3d 00 12 92 be 1a fe 8f 3c 5f c1 ba be
       0.118035674 -0.28529358 0.01757722 -0.36475655
000090 23 6c 60 3c a5 89 92 3c aa 77 c2 3e 31 36 fc 3d
       0.013697657 0.0178879 0.3798192 0.12315024
0000a0 4e c0 8e 3e 31 c4 2d 3d d3 fc 2d be 48 d8 c1 be
       0.27881092 0.04242343 -0.16990976 -0.37860322
0000b0 fc 86 77 bc 05 67 5d be f3 75 29 3c 16 39 54 3e
       -0.015107866 -0.2162133 0.010343063 0.20724902
0000c0 1c de 2b 3e 52 1f 83 bd 3b 8f bd bd c4 f4 f8 3d
       0.16783947 -0.06402458 -0.09255835 0.1215606
0000d0 7b fe ce 3d 55 a1 10 3e e7 34 af 3d ff 10 82 3d
       0.10107132 0.14124043 0.08555012 0.06350898
0000e0 a7 a3 88 bc 5d b3 95 3d 6b 17 66 3d 91 6d 30 3e
       -0.016679598 0.073096015 0.056174677 0.17229296
0000f0 2c 10 40 3d 72 65 ab 3c ca a1 51 3e 72 6f 9c 3d
       0.046890423 0.020922396 0.20471874 0.07638444
000100 3b 69 7f 3e dd f6 12 bc 20 60 58 3b f3 8c 0d 3e
       0.24942486 -0.00896999 0.003301628 0.13823299
000110 d2 81 a6 3e 06 b9 a3 3e 67 60 2d 3e af fd ff 3d
       0.3252092 0.319771 0.16931306 0.12499558
000120 6e c8 f4 3d 48 96 fd 3d 22 69 9c 3e f4 12 92 be
       0.119522914 0.123821795 0.3054896 -0.28530085
000130 6f 32 4a 3c b1 c0 03 be b8 85 59 be 30 e5 01 be
       0.012341126 -0.12866475 -0.21242416 -0.12685084
000140 72 ef 01 bd a5 d9 b9 bd 72 54 4a bd 63 4e 98 3d
       -0.031722493 -0.090747155 -0.04939694 0.07436826
000150 8b bf 94 bc 35 bb 20 3c 85 72 97 be 88 9e 0e be
       -0.018157741 0.009810259 -0.2957956 -0.13927662
000160 38 3b 0f be 12 86 71 be 15 bd 9d bc dc 44 8a be
       -0.13987434 -0.235863 -0.0192552 -0.2700566
000170 fd 55 91 be 05 05 5a be a1 79 77 be 15 fd 5c be
       -0.28385916 -0.21290977 -0.24167491 -0.21580918
000180 bc 75 8e be f6 c0 2d bf c3 f5 5d be c5 6e a0 3d
       -0.278242 -0.6787256 -0.21675782 0.078336276
000190 54 35 ba 3c 66 9f a3 be 5b c4 09 3e 88 81 c2 be
       0.022730507 -0.3195755 0.1345381 -0.3798945
0001a0 c0 0f 1a 3e 3f c0 2a bd 95 6c b5 3e 18 93 80 be
       0.1504507 -0.041687246 0.35434404 -0.25112224
0001b0 78 15 d5 3e b2 c8 25 be 3c e4 e2 3d 79 fa a8 bd
       0.41617942 -0.1618984 0.110786885 -0.08250899
0001c0 fe 09 51 be 4d cc 1a be 13 c1 d6 3c d2 e5 05 3e
       -0.20413968 -0.15116997 0.026215112 0.1307595
0001d0 78 7d b2 3c a2 6c 13 3e d2 98 63 be 40 7f 52 be
       0.021788344 0.14396909 -0.22226265 -0.20556355
0001e0 5c 4f 7e bb 02 b9 61 be e4 e0 67 3d 47 1a 62 3d
       -0.0038804626 -0.22043231 0.056610957 0.05520084
0001f0 9b 78 20 be e3 e7 85 be b6 f4 e3 3d c2 50 4c 3d
       -0.15671007 -0.26153478 0.11130659 0.049881704
000200 f6 de 31 be 29 4a 3d be 2d 90 10 be 98 65 fa 3d
       -0.17370209 -0.18485321 -0.14117499 0.12226409
000210 58 7a ab 3c 6a fd c8 bd d0 b6 21 be ea a8 74 bc
       0.020932361 -0.0981396 -0.15792394 -0.01493285
000220 f8 f5 dd bc 98 94 c4 3d 60 e3 37 3e be a4 af be
       -0.027094826 0.095986545 0.1795783 -0.34305376
000230 04 bb d0 bd da 24 64 bd 8e ec be 3d 33 98 2e 3e
       -0.101919204 -0.055699207 0.09322463 0.17050247
000240 2a 03 d3 be 28 6e 8d bd 42 9d 98 3d f5 a6 12 3d
       -0.4121335 -0.06905776 0.074518695 0.035803754
000250 e4 cc ee bd 9b 01 84 be 73 46 c2 bb 04 28 d7 bd
       -0.116601735 -0.25782475 -0.0059288084 -0.10505679
000260 a0 19 f1 3d a2 b4 b7 bd cc 83 af be d2 73 30 3e
       0.11772466 -0.0897 -0.3428024 0.17231682
000270 d6 1e 8a 3e 1c d9 e7 bd a7 17 15 be 2b a0 b7 bd
       0.2697665 -0.11320707 -0.14559804 -0.089660965
000280 81 34 dd 3e 75 ca 26 bf 7d b9 74 3e 16 cb 6c 3e
       0.4320412 -0.65152675 0.23898883 0.23124346
000290 c8 3b 2b bc 7b 79 e5 bd b6 d2 eb 3f 8d c9 3c bf
       -0.010451265 -0.11204811 1.8423679 -0.7374504
0002a0 00 92 2e 3c d5 cc 05 bf 1a c7 48 be 94 53 b9 bf
       0.010654926 -0.52265674 -0.19607201 -1.4478631
0002b0 5c 80 8e 3f c5 81 d8 3e 68 65 65 3e dd cf c4 3d
       1.1132922 0.42286506 0.22401965 0.09609959
0002c0 09 6b a9 3d 72 b5 2f 3c c5 3d a8 3d 6d b2 ae bd
       0.082723685 0.010724412 0.082149066 -0.08530126
0002d0 fc 90 50 bc d3 a6 18 3e 2f a8 62 3e e8 fd 65 be
       -0.0127298795 0.14907388 0.2213447 -0.22460139
0002e0 95 f2 e4 3d 4f 9c 00 3e 37 ff a6 3d 01 62 c3 be
       0.11179081 0.12559627 0.08154147 -0.3816071
0002f0 8d 1f 0e 3e 31 bb 14 be b7 f9 ce bd c4 49 1c be
       0.13879223 -0.14524533 -0.10106223 -0.15262514
000300 2b 31 e9 3d 15 fc d3 bd e4 0d 70 bd b5 73 2e be
       0.11386331 -0.10350815 -0.058606997 -0.17036326
000310 92 f3 b4 be c8 82 f9 bd 4b 32 fa bd 35 8b 7b 3c
       -0.3534208 -0.12183148 -0.12216624 0.015353014
000320 67 26 01 be 02 f0 03 3e 8b 03 e5 3d 3a e3 f0 3d
       -0.12612306 0.12884524 0.111823164 0.1176209
000330 76 7a 87 3d 5f c5 dc bd 94 a2 b7 bd 05 b2 1d 3d
       0.066151544 -0.10779833 -0.08966556 0.03849985
000340 da 85 96 3d 39 25 39 3d a1 c9 02 bf 22 64 23 be
       0.07349749 0.045201514 -0.5108891 -0.15956166
000350 ea 96 91 bd 0f 9e 4e 3d f6 99 53 bb d4 98 f3 be
       -0.07108863 0.050443705 -0.0032287813 -0.47577536
000360 e3 f0 90 be 08 82 b4 be 79 1f 60 3d d3 67 e1 3a
       -0.28308782 -0.35255456 0.054717515 0.001719708
000370 2f d2 94 bd 18 a6 aa bd 77 91 82 3c 65 e6 4e bc
       -0.07266652 -0.08332461 0.015938504 -0.0126281725
000380 a6 d9 47 bd 5c cb a5 bd cc ba d7 bc fb 59 9e bc
       -0.04879155 -0.08095428 -0.026334189 -0.019330015
000390 11 e5 56 bd 43 68 65 bd 98 93 97 3d 5f 69 40 bc
       -0.05246455 -0.056007635 0.07401198 -0.011743872
0003a0 df 75 9d 3d e9 bc 59 3d c5 25 a4 b9 6b 5f 38 bd
       0.07688498 0.053158674 -0.00031308658 -0.045012873
0003b0 9d f3 42 bc ee 8d 60 3e 19 e5 16 3d 8f ba 40 3d
       -0.011898902 0.21929142 0.03683958 0.047052916
0003c0 2b fe 6c 3d d1 56 bb be 83 83 ea bd 80 ff 62 3e
       0.05785958 -0.36589673 -0.11450865 0.22167778
0003d0 2c 04 5d 3e 2c ca c6 3d 5d d6 b7 bc 72 e4 67 be
       0.21583623 0.0970653 -0.022441084 -0.22645739
0003e0 05 34 80 bd ec 47 0e 3e d9 8c 2f be af b1 21 3e
       -0.06259922 0.13894624 -0.17143573 0.15790437
0003f0 39 bc 18 be 47 99 19 be 26 7c 83 be 77 b6 43 3e
       -0.14915551 -0.14999877 -0.25680655 0.19112574

conv_2.bias f4 [16]
000000 5a d9 81 40 cd 89 5a bf c3 7a 1e 40 43 4a a4 3f
       4.057782 -0.8536652 2.4762428 1.2835163
000010 57 37 13 bf 73 eb 2c c0 c6 a6 8d 3f 98 71 1c 40
       -0.57506317 -2.7018707 1.106652 2.4444332
000020 2b 4b 5c 3f 9c 5d 1c bd 0f 57 4a 3f a1 ac 96 bf
       0.860522 -0.03817521 0.7903909 -1.1771432
000030 ae 59 08 be a1 fa 9b 40 47 f2 50 bf e0 f7 1c 3e
       -0.1331546 4.8743443 -0.81619686 0.15328932

fc_1.weight f4 [120, 400]
000000 30 f7 66 be 08 d5 8f bd 9c 23 15 3d 78 6c d3 bd
       -0.22555232 -0.07023054 0.036410913 -0.10323423
000010 2e ed d4 bd 11 d1 e5 bd 59 c2 8c 3d 2e 61 54 3e
       -0.10396801 -0.11221517 0.068730064 0.20740196
000020 74 1e a2 3d c9 d0 38 3c 06 db 2b be 81 f3 bc 3d
       0.07915965 0.011280247 -0.1678277 0.09226132
000030 63 98 8e 3e c1 24 00 3e b9 4a 09 3e 0f 71 78 be
       0.27850637 0.1251402 0.1340741 -0.24261878
000040 b1 11 aa 3d 64 d7 22 3e ce 47 12 3e 83 c5 4d 3e
       0.083041556 0.15902478 0.14285204 0.20094876
000050 2f 20 21 be 4e 08 50 3d 36 86 36 3e da a9 4a 3e
       -0.15734933 0.05078917 0.17824635 0.19791356
000060 f8 a0 8c 3e d2 6b 87 3c a1 79 34 bd ab 95 cb bd
       0.2746656 0.016530905 -0.044061307 -0.09940656
000070 11 37 98 bb e8 8c 0d 3c 3e d8 96 bd 42 fc 5b bd
       -0.0046452363 0.008639552 -0.07365464 -0.05370737
000080 61 2d 81 3c 7c b7 1c 3c c0 26 8f 3d 66 0c 7c bb
       0.015768709 0.00956523 0.06989813 -0.0038459538
000090 71 16 1e bd 2c 08 aa bc 29 36 89 3d 1b 4d e4 3d
       -0.03859562 -0.02075585 0.06699783 0.11147519
0000a0 d3 72 95 bd 4f 0b 30 bd f6 d0 20 3d 6b 56 75 3c
       -0.072972916 -0.042979535 0.03926178 0.014974217
0000b0 90 7f 73 3c df d4 32 3e 1b 2f c2 3d ac b2 2f 3e
       0.014861956 0.17464016 0.09481641 0.17158002
0000c0 38 5c 32 3e 06 0b d2 3d 18 4a 1b bd f2 bd ae bc
       0.17417991 0.10256009 -0.03791246 -0.021330807
0000d0 7d 3d e2 3d 70 cb 36 bb b3 69 0f be 1d 37 f0 bd
       0.11046884 -0.0027892254 -0.14005165 -0.11729262
0000e0 67 cd e6 3d 90 d9 30 3e cd 2d ba 3d 91 06 24 be
       0.11269646 0.17270494 0.09090767 -0.1601813
0000f0 62 32 8b bd 0c 4a 6d 3d e2 2f b3 3c 77 a2 71 3d
       -0.06796719 0.057931945 0.021873418 0.05899283
000100 29 19 9e bd 00 e1 3d bd 00 8c dd bd 41 f9 d7 bd
       -0.07719643 -0.046357155 -0.108177185 -0.10545588
000110 bb c1 c0 bd 01 33 b4 bd 82 26 fc bd 29 de 21 be
       -0.09411951 -0.08798791 -0.12312032 -0.15807404
000120 01 99 48 be cc 19 72 be 32 77 89 be 7f 70 18 3e
       -0.19589616 -0.23642653 -0.2684875 0.14886664
000130 bd fa 7b 3d 9d ff 57 3c 39 b8 d4 3c d9 5c 26 bd
       0.06151842 0.013183502 0.02596675 -0.04061589
000140 7f 5c 8d 3d 13 f4 89 3d a2 39 aa 3d 72 7f 96 3c
       0.06902408 0.067360066 0.08311774 0.018371318
000150 f1 63 72 bd 1f 25 03 3d ac 18 61 bd 96 52 9c bd
       -0.059177343 0.032017823 -0.05495517 -0.076329395
000160 2a 97 01 be 16 ab 35 be 0d f2 8d 3d b5 11 a4 bd
       -0.12655321 -0.17741045 0.06930933 -0.0801119
000170 1a 87 31 be 04 e3 b9 bd a6 3a bb bc 4e 47 fd 3d
       -0.17336693 -0.09076503 -0.022855114 0.12367116
000180 b9 61 b6 3d ef 9b e1 bc 6e d8 ba 3c 40 c3 db bc
       0.08905358 -0.027540175 0.02280828 -0.0268265
000190 04 70 40 3d 19 3f 64 3c 75 20 c0 3d db 97 21 3e
       0.046981826 0.013931059 0.09381191 0.15780585
0001a0 e8 38 b6 3d e0 e1 c0 bd f0 8c d1 bd 97 da ee bc
       0.08897573 -0.09418082 -0.1023196 -0.029156966
0001b0 6f 61 ae bd 05 ff 3c bd ca 89 20 bd 17 92 1f bc
       -0.08514678 -0.046141643 -0.039193906 -0.00973942
0001c0 4f 92 b6 3d cf de ba bd 65 11 15 3d 51 91 79 bd
       0.08914625 -0.091245286 0.03639354 -0.0609296
0001d0 30 c7 83 bc 20 d4 c0 3d 7f 55 4e bd 9b 13 49 bc
       -0.016086191 0.0941546 -0.050374504 -0.012272741
0001e0 7b 12 44 3e d6 d9 46 3e b2 48 e8 3d 64 ce d4 3d
       0.19147675 0.19419035 0.113419905 0.103909284
0001f0 81 d2 55 bd f0 76 15 bc fc 7d c4 3c 07 65 b3 3d
       -0.052202705 -0.009122595 0.023985855 0.08759504
000200 6e 19 33 3d 70 49 1a 3e a0 3f 98 3b 60 34 a2 3c
       0.043725424 0.15067077 0.0046462566 0.019800365
000210 4d fe e4 3c 78 9a 8f 3d 5a ef ad 3d a5 d5 0e 3d
       0.027953291 0.070118845 0.08492918 0.034871716
000220 37 4a 3a 3d f1 72 0e 3d 35 bb 6b bd 30 c8 25 bd
       0.045480933 0.034777585 -0.05755158 -0.040474117
000230 db 5f 0d 3e 15 b3 b3 3d 1f f4 41 3c e8 1d 46 be
       0.13806097 0.087743916 0.011837988 -0.19347346
000240 43 7c 60 bd 79 10 02 3e 43 67 41 3d 48 c1 8c bd
       -0.054806005 0.12701596 0.04721762 -0.06872803
000250 a0 0a 3d be a3 e3 d5 bd 16 1c e7 3d 78 19 9e 3d
       -0.18461084 -0.10443809 0.11284654 0.077197015
000260 08 67 b4 bd 9f 8f 74 bd 44 2d 60 bd b8 4c 1b 3d
       -0.08808714 -0.05970728 -0.05473067 0.03791496
000270 cd b9 61 3d bc 6e e3 ba 0b e2 d3 bc d1 ef 32 bd
       0.055108834 -0.0017351727 -0.025864622 -0.043685738
000280 ff b8 80 3b 05 10 f3 bc dc 56 b2 bd b6 95 30 bd
       0.0039283033 -0.029670725 -0.08707973 -0.043111525
000290 b3 b8 5f 3d 71 b0 fe 3b 44 8e ab bd 6a dd 2a be
       0.054619502 0.0077724983 -0.083767444 -0.16686025
0002a0 61 9b ae bd da 23 92 bd 38 e0 f8 bc b1 1e a5 bd
       -0.0852573 -0.071357444 -0.030380353 -0.080624945
0002b0 1a 38 4d be 44 34 cd bd 59 28 eb 3c 5d 8b 07 bc
       -0.20040932 -0.100197345 0.028705763 -0.008272973
0002c0 44 96 25 3d e3 77 59 3d 31 b2 b3 3d 66 37 fb 3d
       0.040426508 0.05309285 0.08774222 0.12266426
0002d0 6d 69 25 bd a1 57 14 3e 21 fc 06 3e a8 a0 38 3c
       -0.040383745 0.14486553 0.13182117 0.011268772
0002e0 60 af 94 bb ab 7f a9 bd a3 c6 90 3c 8c 72 55 3d
       -0.004537508 -0.08276304 0.017672842 0.052111194
0002f0 97 1b c5 3c 00 65 06 be 9c 0d 0a bc 9c 3f 9d 3d
       0.024061007 -0.13124466 -0.008426096 0.07678148
000300 29 d5 0a 3c 5c c4 b4 bc b5 f5 3a bd 54 e9 a0 3d
       0.008473673 -0.022066288 -0.04564448 0.07857004
000310 11 be 06 3e be 46 19 bb b1 26 d7 bd ad 65 62 3d
       0.13158442 -0.0023388113 -0.10505427 0.055272747
000320 37 a0 30 bd 53 8f 23 be a8 41 ae bd b1 e6 83 bd
       -0.043121543 -0.15972643 -0.08508617 -0.06440485
000330 d8 d7 60 bc 4b f4 15 3d 84 51 34 3e db 52 ca 3d
       -0.013723336 0.03660993 0.1760922 0.09879085
000340 12 69 9d 3d 95 43 13 3d a1 c2 bb 3d db 47 7e bc
       0.07686056 0.035953123 0.09167982 -0.015520061
000350 92 3a 29 be 50 f0 28 be 66 77 96 bc b1 e4 e3 bb
       -0.16526249 -0.16497922 -0.01836748 -0.0069547524
000360 da c1 06 be 26 41 77 be ee 42 54 be e5 c5 a5 bd
       -0.13159886 -0.24145946 -0.20728657 -0.08094386
000370 dd df 0f 3d 22 e3 01 bd 1d 3a 3b bd 6d 13 14 bc
       0.035125602 -0.03171075 -0.045709718 -0.009037835
000380 f1 13 5a bd f7 e7 43 bd 10 86 be bd ac 55 9e bd
       -0.053241674 -0.04782864 -0.09302914 -0.07731184
000390 33 07 f1 bd 5a 38 1b be b9 9a 84 3d 7d a4 4d 3d
       -0.11768951 -0.15158215 0.064748235 0.050205696
0003a0 ab a1 a0 3d 5b 04 f6 3b c6 6f b2 bc 5d a2 c4 3d
       0.07843336 0.0075078434 -0.021781813 0.09601281
0003b0 b3 fe b3 3c 38 86 57 3d 43 25 8a bd f9 bd 73 bd
       0.021972036 0.052618235 -0.06745388 -0.059507344
0003c0 5f f7 f7 3d 12 39 0b 3e ae c7 28 3d 22 d3 f6 bc
       0.12107729 0.1359599 0.041206054 -0.030129973
0003d0 d1 ce eb bd 92 62 ab 3c c1 65 d8 3d 1f 26 12 bd
       -0.115140565 0.020921025 0.10566283 -0.035680886
0003e0 b9 3b b5 3c 29 57 5b bd b1 2a 72 3c a0 65 8c 3d
       0.022123205 -0.05354992 0.014780686 0.06855321
0003f0 9e 37 e4 3c c0 58 a7 3c ba c1 57 3c b4 3a 18 bd
       0.027858552 0.020428061 0.013168747 -0.03716536

fc_1.bias f4 [120]
000000 cc 58 1b 3e c5 a8 77 3e a4 49 2c bd 70 d5 fc bd
       0.15170592 0.24185474 -0.042062417 -0.123453975
000010 4e 9d 8e bd d8 5d 8d 3e 72 5d 9f 3d 7f 8f 6d 3c
       -0.06963597 0.2761066 0.07781495 0.014499544
000020 9f 00 22 be 18 cc 5e bd 41 77 b3 3e 41 b5 37 3e
       -0.1582055 -0.054393858 0.3505192 0.17940237
000030 18 22 fe bd 0c a4 92 3d 65 50 d8 3d a9 d8 f4 bd
       -0.124088466 0.07160196 0.10562209 -0.11955387
000040 33 f8 72 3d 6d 93 3d ba b2 bd f6 3d 62 8a 4c 3e
       0.059318732 -0.0007231746 0.120479 0.19974664
000050 74 90 15 be fa 19 12 bb cb f5 c4 3d dd c2 4e 3b
       -0.14605886 -0.0022293315 0.09617194 0.0031549253
000060 11 ee a0 bd df ed b4 3e 15 58 51 be 0e 33 b1 3e
       -0.078579076 0.3533773 -0.20443757 0.34609264
000070 60 ea c5 bd e7 b4 7c be 22 80 8b 3e 13 8b 27 be
       -0.09663844 -0.24678384 0.27246195 -0.16361646
000080 a5 75 b5 3d 80 b3 9b be a1 ac 98 bd 6b 80 59 be
       0.088603295 -0.30410385 -0.07454801 -0.21240394
000090 7c 1f 67 3d c0 bf 24 3e 64 d7 1e be 1f 3e 0b 3e
       0.05642651 0.16088772 -0.15511853 0.13597916
0000a0 97 55 19 be 00 eb 93 3e 90 9a 88 3e 29 3a b9 be
       -0.14974056 0.28890228 0.26680422 -0.36177185
0000b0 b3 29 b0 3d 01 25 47 bd c2 3b b7 3e a0 3a 11 bd
       0.086017035 -0.048619274 0.3578778 -0.0354563
0000c0 69 27 1c 3e 69 59 82 3e 7d 2c 3f be 6f 1a 28 be
       0.15249409 0.2545884 -0.18669315 -0.16416334
0000d0 46 27 65 bd 0f 7d 31 bd 00 4d 98 be 25 10 09 be
       -0.055945657 -0.043332156 -0.29746246 -0.13385065
0000e0 20 f6 42 be 08 fc d8 bd 7c 04 e3 b9 89 dd c9 bd
       -0.19039202 -0.10594946 -0.00043300155 -0.098567076
0000f0 b2 91 c6 be 8d 4d 43 be b7 1e 10 3f 79 4a 9f 3c
       -0.38783032 -0.19072552 0.5629687 0.019444691
000100 0f 91 3c 3e b9 a9 e9 bd 89 40 b7 bd 58 e1 b8 be
       0.1841471 -0.11409325 -0.08947856 -0.36109424
000110 a8 da cd 3d b6 f3 83 be 5a e8 88 3e 7e 42 ca bd
       0.10051471 -0.25771874 0.2673977 -0.09875964
000120 29 fa e1 bc 5b b0 83 be 75 ee 71 bd 70 36 3d 3d
       -0.027585106 -0.25720486 -0.0590653 0.046194494
000130 ef a1 b7 3e 8b 4f db 3d 66 0a 95 be af 25 62 3d
       0.35865733 0.10708531 -0.29109496 0.05521172
000140 87 5e 1b 3f 97 2b e8 3d 37 1d 00 bd c9 26 52 be
       0.6069111 0.11336439 -0.03127786 -0.20522608
000150 6d 1a 15 3e ab 82 05 be f1 14 32 3e 7e 7a 32 3a
       0.14560862 -0.13038127 0.17390801 0.0006808414
000160 17 25 12 be 45 ca 68 be bc 27 a4 3e b8 ad 51 3d
       -0.14271961 -0.2273341 0.32061565 0.05119106
000170 3a 8f 41 3e 90 19 70 3e c0 79 28 bd 86 c4 7b 3e
       0.18902293 0.23447251 -0.041131735 0.24586686
000180 4f 88 0b be a5 33 7b 3e 47 1c 0b 3e 99 89 89 3d
       -0.13626216 0.2453142 0.13585006 0.06715698
000190 a2 e3 11 3e 12 60 9d bd c8 7b 88 3e 71 89 2a be
       0.14246991 -0.076843396 0.26656938 -0.16653992
0001a0 61 47 e1 3d 50 17 8b 3e 38 81 9a 3e 84 ab 0a be
       0.109999426 0.27166224 0.3017671 -0.1354199
0001b0 42 f1 78 be 90 ef 48 3e cb b3 fd 3d e9 2c 5f 3e
       -0.24310783 0.19622636 0.123878084 0.21794476
0001c0 a8 5d 16 be cb aa 0a 3e 9d 9a d0 bd d4 b7 e1 bd
       -0.14684165 0.13541715 -0.1018574 -0.110213906
0001d0 5e 50 46 3d 6b 4e 65 be 7e e5 48 be 23 a0 ad bd
       0.048416488 -0.22393195 -0.19618794 -0.08477809

fc_2.weight f4 [84, 120]
000000 5f 47 c3 bc ca ec 3f bd cd 53 8f bc 93 70 70 bc
       -0.023837743 -0.04685668 -0.017496014 -0.014675277
000010 2f 5c 2a bd 6d 6f 18 bc 0f 39 61 3c 42 42 e0 bc
       -0.04159182 -0.00930391 0.013746514 -0.027375344
000020 a0 88 55 bc d7 73 dc bb d1 3b 22 bd 23 20 09 bd
       -0.013033062 -0.0067276764 -0.039607827 -0.033477914
000030 0f e2 bb bc d2 a4 8f 3c b9 0f 5f bc 9b 15 0a bc
       -0.022934942 0.017534647 -0.013614588 -0.008428003
000040 33 88 58 bc 8f fb d6 b6 b8 20 cb bc f9 43 d5 bc
       -0.013216066 -6.4069823e-06 -0.024795875 -0.026033388
000050 e9 41 8c bc 93 f5 0e ba c8 4d 2c 3d 77 82 d5 38
       -0.017121272 -0.00054534635 0.042066365 0.000101809324
000060 1a 5b cf bc 69 15 1e ba e6 c8 c7 bc fb 25 b0 bc
       -0.025311995 -0.0006030412 -0.024387788 -0.021502485
000070 7b 18 17 bc 53 5b 6f bc 0d 23 16 bd c6 07 f2 bc
       -0.009222145 -0.014609176 -0.03665452 -0.029544722
000080 ea 53 28 bc eb e4 ba bc 96 5b c7 bb b5 01 ce bc
       -0.010273913 -0.022814235 -0.006083916 -0.025147298
000090 26 44 b2 bc a2 d1 00 bd d2 40 e8 bb 60 d0 dd bb
       -0.021761011 -0.03144992 -0.0070878053 -0.006769225
0000a0 03 7b 03 bc 6a 40 b6 bc c5 73 1c bd 8f 7d 34 bd
       -0.008024934 -0.022247512 -0.038196344 -0.044065055
0000b0 d8 79 a5 bc a3 ef 8b bc 1e 4b a8 bc 7c 6b 6a bc
       -0.020199701 -0.017082041 -0.020543631 -0.014307853
0000c0 0a 2a 71 bc 15 18 28 bc 68 a2 bb bc bb 2a 85 bc
       -0.014719496 -0.010259648 -0.02290459 -0.016255727
0000d0 5b f6 c8 bc ed 92 4b bc 9a fc 8b bc db 8b 6f bb
       -0.024531534 -0.012425167 -0.017088223 -0.0036551866
0000e0 d0 87 02 bd b4 0d b6 bb f4 d6 b9 b9 b3 2b 51 bc
       -0.031867802 -0.0055558328 -0.00035446102 -0.012766766
0000f0 23 93 49 3b 06 2c ef bc c7 be 15 bd a6 7c e7 bc
       0.0030757866 -0.029195797 -0.036558893 -0.02825768
000100 5e ee 53 bc 12 10 70 bd 0a 5a d0 bc 0b 5c a5 bb
       -0.012935249 -0.058609076 -0.025433559 -0.005046373
000110 5e 0e 77 bb 5c 01 09 bd 62 9e 8a bc 01 ed f6 bb
       -0.0037697772 -0.033448562 -0.016921226 -0.0075355773
000120 98 01 8e bc 8e 1d 5e b9 dc f4 a9 bc 42 6d 26 bd
       -0.017334744 -0.0002118258 -0.02074664 -0.04063154
000130 59 e5 09 bd df 34 0e bd 4a 00 9d bc d8 f8 b8 bc
       -0.03366599 -0.03471839 -0.019165177 -0.022579595
000140 21 7d 81 bb 45 6d 22 bd 6e 09 62 ba 80 70 19 bc
       -0.003951684 -0.03965499 -0.0008622621 -0.009365201
000150 6d 72 00 bd ac cf 89 bc 8a 14 27 bc 6d ee 5f 39
       -0.031359125 -0.016822658 -0.010197768 0.00021355758
000160 0c 31 a0 bc 13 96 1d bd 47 91 97 bb 9e 46 3a bc
       -0.019554637 -0.0384732 -0.0046254727 -0.0113693755
000170 07 9a 7a bc 53 32 8d bb 72 1b 1f bc ed b0 c4 bc
       -0.015295512 -0.0043089776 -0.009711133 -0.024010146
000180 1d 83 0c bc f8 e3 b2 bb 69 f2 7d b9 0a ea fa bb
       -0.008576182 -0.005459305 -0.00024218265 -0.007657294
000190 1d 55 87 bc 71 dd b1 bb e3 e9 25 bc cc a6 b1 bc
       -0.016520077 -0.005428009 -0.010126564 -0.02168598
0001a0 e5 32 46 bc 0c 9c e0 bc 72 e7 01 bd a9 83 45 b8
       -0.012097095 -0.027418159 -0.031714864 -4.7091078e-05
0001b0 77 a2 02 bc c3 1d 1f bd 33 12 e9 bb 1a 51 c4 bc
       -0.007973305 -0.038846742 -0.007112765 -0.023964453
0001c0 a8 a2 c2 bc 90 1c d6 bb 25 e5 c5 bb 94 35 ce bc
       -0.023759201 -0.0065341666 -0.006039279 -0.025172032
0001d0 6f 81 b5 bc e1 f0 bd bc b5 f3 fc bb e8 cd 74 bc
       -0.022156445 -0.02318615 -0.007719482 -0.01494167
0001e0 ee 0b 6f 3d 74 28 1e be b2 e7 84 3d 4b 55 06 3d
       0.058360986 -0.15445119 0.06489505 0.032796185
0001f0 00 b8 51 3c 79 89 d3 3b 1d 68 c4 3d 24 7b 79 be
       0.012800217 0.006455597 0.095901705 -0.2436338
000200 18 d1 1f 3c 99 4f 00 be a6 6d 1f be 3d 18 b3 3c
       0.009754442 -0.12530364 -0.15569171 0.021862144
000210 e5 48 9a bd d4 92 c3 bd 28 59 50 3b 68 10 25 be
       -0.07533435 -0.095494896 0.0031791423 -0.1611954
000220 4b 09 ac bc c0 c6 ac 38 b0 64 23 be 8e dd dc 3d
       -0.021000525 8.238619e-05 -0.15956378 0.10784446
000230 5c 24 ab bc 40 4e ed ba ea 08 27 be ff e8 43 bb
       -0.020891361 -0.0018104985 -0.16311994 -0.0029893515
000240 d1 2f 1e bc fe 01 b0 3d 9c 6e 99 3c 50 71 52 bc
       -0.009654955 0.0859413 0.0187295 -0.012844399
000250 06 c0 ae 3d 3a 21 fe bc 95 0b ac 3c c5 d8 21 be
       0.08532719 -0.031021703 0.021001616 -0.15805347
000260 2a 05 fe bd 50 60 04 bd ec 46 6b bd be fb 8f bd
       -0.12403329 -0.032318413 -0.057440683 -0.07030438
000270 e1 d2 13 be fc db 00 3e 9b bf 98 bd 0e 83 1f 3c
       -0.14435913 0.12583917 -0.07458421 0.009735836
000280 2f db 64 bd 03 a6 90 bd 02 22 64 3d 44 94 77 bd
       -0.055873092 -0.07062914 0.055696495 -0.06044413
000290 dc f7 c4 bd 4e 39 9b bb ae 25 8d 3d 42 0a 76 3d
       -0.09617588 -0.004737056 0.068919525 0.060068376
0002a0 b1 a5 fb bc ff 28 4a 3e ca 59 80 bd 23 10 41 3d
       -0.030718656 0.19742201 -0.06267126 0.04713453
0002b0 40 ec b8 bd 30 d0 e1 bd e9 9f 03 3e 1a 22 06 bb
       -0.09029436 -0.11026037 0.1285397 -0.0020467103
0002c0 6a 85 ae 3c b6 0a 8c bc e2 58 fd 39 e6 57 45 3d
       0.021303851 -0.017094951 0.00048322143 0.04817953
0002d0 cd e3 95 bb 1a 97 25 3d 06 38 10 3e 78 c0 68 ba
       -0.004574275 0.040427305 0.14083871 -0.0008878778
0002e0 ba 8e b3 bc 63 4f cd 3d e4 aa 40 3d 6a ef 8b be
       -0.021918643 0.100249074 0.047037974 -0.27331096
0002f0 a3 8e 59 bd 3f fc 80 3d 4a b0 95 3d 88 91 71 3d
       -0.053114545 0.06298112 0.07309015 0.05897668
000300 83 59 40 bd 0e f4 38 be fb 7b 0b be 3f b2 ec bc
       -0.046960365 -0.1806185 -0.13621514 -0.028893588
000310 cb f1 45 bd 0d 3c 89 3c 60 75 14 be bc 8a 8b 3d
       -0.048326295 0.016752267 -0.144979 0.06813571
000320 b9 20 64 3d c8 36 85 3d b1 2b c9 bd 93 34 1e bd
       0.05569527 0.06504589 -0.098227866 -0.038624357
000330 df 5c 40 3d 46 f7 83 3d 51 85 b9 3d eb bb a4 b8
       0.04696357 0.06443648 0.09058631 -7.855132e-05
000340 ec 2d 89 3c a7 c2 a4 bc dc 3d cd 3d e9 c6 bd 3c
       0.01674553 -0.020112349 0.10021564 0.023166137
000350 d9 87 0c 3c 97 af 8f 3d 82 de 48 bc 4d 5e 01 bd
       0.0085773105 0.07015913 -0.012260081 -0.031584073
000360 3e 53 cc bc 7e aa f0 bd 21 b1 be 3d e0 f7 8f bd
       -0.024942037 -0.11751269 0.093111284 -0.070297
000370 f2 3d 00 be 9e 74 dc bd 96 17 21 3d 0c 80 a2 3d
       -0.1252363 -0.107644305 0.039329134 0.07934579
000380 d8 f2 ba 3d d5 f1 be bd d3 85 17 be 13 c4 89 bc
       0.0912835 -0.093234695 -0.14797144 -0.016817128
000390 95 b1 5f 3d 3f cd d3 3c ed 57 69 3d b0 51 15 bd
       0.054612715 0.025854705 0.05696862 -0.036454856
0003a0 d7 d6 7f 3d c9 f6 37 3d 4d 1d e4 3c bb fd 7d bc
       0.062460747 0.044913087 0.027846003 -0.015502389
0003b0 04 fe ef 3c 5f 05 e4 bd 11 d7 3e be 5d 13 a4 bd
       0.029295929 -0.11133837 -0.18636729 -0.08011506
0003c0 63 22 e1 3d 1d e1 3b 3c cc 84 dd bd c5 c2 1f 3e
       0.10992887 0.011467245 -0.108163446 0.15601642
0003d0 30 c0 65 3c 28 c3 1d 3d ed bf 9a 3d c3 4e 5d bd
       0.014022872 0.038516194 0.07556138 -0.05403019
0003e0 58 ae 7d bd 73 c1 c4 bd fb 7e 21 bc f8 54 04 3e
       -0.061933845 -0.0960721 -0.009856935 0.12923038
0003f0 54 db 5e bd 88 eb 21 3d 8e 81 79 bd 33 8b 97 3d
       -0.054408386 0.03953126 -0.06091457 0.07399597

fc_2.bias f4 [84]
000000 93 5f a3 bc 9e 09 48 3f 54 73 6a 3f e1 aa ba 3d
       -0.019943034 0.78139675 0.91582227 0.09114624
000010 ea 13 3c 3f d7 2b 46 3e ae 0a a3 3d 5e 3d 01 be
       0.73467886 0.19352661 0.07961021 -0.12621066
000020 50 3f 06 3e 85 c8 16 3e 9a 4c 2d 3f fb 65 b4 3f
       0.1311009 0.1472493 0.6769501 1.4093622
000030 9a 4d 27 3f b3 03 1e 3f 1f 95 58 be d6 65 8f 3f
       0.65352786 0.61724395 -0.21150635 1.1202953
000040 3f b4 64 3e fb 79 5f 3f 73 e3 02 3f 44 06 a2 3f
       0.22334383 0.872955 0.5112831 1.2658162
000050 c5 e4 47 3e 36 4f 94 3d ff 55 81 3f 91 c5 92 3e
       0.19520862 0.07241671 1.0104369 0.28666356
000060 3b 0f bb 3d 70 9d 36 3e 67 b7 88 3d e2 d0 aa bd
       0.09133764 0.17833495 0.06675606 -0.083406225
000070 3c 87 19 3e 8d 80 38 3e fb b3 95 3e cf e3 62 3e
       0.14992994 0.18017788 0.29238877 0.22157215
000080 09 e6 82 bd e4 07 e3 3d dc ee 26 3f 50 df 66 3f
       -0.06391532 0.110854894 0.6520822 0.901845
000090 2e 1a 3a bd 18 1b c9 bd 17 35 c9 3e d9 ce 81 3e
       -0.045435123 -0.09819621 0.39298317 0.25353125
0000a0 43 4b bc 3e 44 0e 87 3e bf 7d a2 3d ca e7 bc 3f
       0.3677617 0.2637807 0.079341404 1.4758236
0000b0 01 11 91 bb a6 e1 42 3f 69 ef 99 3e 8f aa 99 3e
       -0.004427076 0.7612556 0.30065468 0.30012938
0000c0 e2 d4 24 3d 3c 3e 1b be 67 a8 09 3e dd b9 26 3e
       0.040242083 -0.1516046 0.13443147 0.16281839
0000d0 5d fd b5 3e 52 ba d0 3f 30 a8 2b 3e 31 fd b8 bc
       0.35544863 1.630686 0.16763377 -0.022581669
0000e0 de d0 18 bd 61 66 d2 3e cc 10 e5 bd be f6 10 3e
       -0.037308566 0.41093734 -0.111848444 0.14156625
0000f0 85 21 8a 3f d0 01 7b 3e 80 41 c4 3e 2d 89 8a 3e
       1.0791479 0.2451241 0.38331223 0.27057782
000100 f2 a9 25 3d 47 e9 93 3e 99 8c 0a 3f d5 fa fc 3d
       0.040445276 0.28888914 0.54120785 0.1235253
000110 c8 d1 a2 3f 0b ac 19 3d f5 a0 8b 3a 72 e9 5b 3e
       1.272027 0.03751759 0.0010652827 0.21475771
000120 db 23 d1 bb 8f 72 31 bb fb fc be bb 7d ac c8 3e
       -0.006382448 -0.002707634 -0.0058284975 0.39194098
000130 4c 8a dc 3d 96 c4 74 3f 08 a8 22 3d 21 9a 74 3f
       0.107685655 0.95612466 0.03971103 0.9554768
000140 66 05 c2 3d 30 c5 44 be 8a 52 99 3d 07 a3 1f 3e
       0.09473686 -0.19215846 0.07486446 0.15589534

fc_3.weight f4 [10, 84]
000000 35 b2 00 bc 4b 9b 7a bc b1 1f 3f be 14 cd 99 3d
       -0.007854988 -0.015295814 -0.18664433 0.07509819
000010 59 55 23 be a3 8b 80 3d 05 85 18 be 1c bb f0 3d
       -0.15950526 0.062766336 -0.14894493 0.11754438
000020 cd ce e2 bc 2d 43 0b bd 77 72 33 3d 09 ac 66 be
       -0.0276865 -0.03399961 0.043810334 -0.22526564
000030 bd 35 8b be ad ba cb bd b8 fd 89 3d ab 98 3d be
       -0.27189437 -0.09947715 0.06737846 -0.1851527
000040 85 1a 90 bd 7d f3 fc 3d 02 7a 6e 3e 3a 93 0c be
       -0.07036308 0.12351129 0.2328873 -0.13728037
000050 1c 1b 90 3d 68 2b 1d bd 18 99 83 3c 4f 46 1b 3d
       0.07036421 -0.038371474 0.016064212 0.03790885
000060 e2 14 e5 3a 27 b0 a9 bd 67 50 00 bd bd 28 39 bd
       0.0017477537 -0.082855515 -0.031326678 -0.045204867
000070 92 ba 8a bc 3f b2 64 3d 2e d8 e1 bd 7a 61 d2 bc
       -0.016934667 0.05583405 -0.11027561 -0.025681246
000080 9d c8 8c 3e c7 8a 08 3e 17 37 a6 3d db 10 a2 bd
       0.27496806 0.1333419 0.08115976 -0.07913371
000090 fb 2d 8c 3d e1 24 36 3e 88 47 e9 3c 21 07 6b 3d
       0.068447076 0.17787506 0.028476492 0.057379846
0000a0 89 1f ba 3d f9 c9 02 3d 73 35 a2 3d f5 cf c6 bc
       0.09088046 0.031930897 0.07920351 -0.024269084
0000b0 02 ad d3 3a c8 76 09 3e cb 79 22 be 08 1f f4 bb
       0.0016149583 0.13424218 -0.15866773 -0.0074499883
0000c0 13 78 34 bd 02 af 4a 3d 46 46 81 3e 97 39 fe bc
       -0.044059824 0.049483307 0.25248927 -0.03103332
0000d0 e9 89 b3 3c 79 96 3f be c3 9b 1f be 2c 50 dd 3d
       0.021916347 -0.18709745 -0.15586762 0.10806307
0000e0 c1 0c 6c bd 2d 59 8a bd 1e 05 12 bd 6d 04 0f 3d
       -0.05762935 -0.0675529 -0.03564941 0.03491633
0000f0 b1 94 65 3d 34 38 df 3d e1 70 75 3c 26 df 00 3d
       0.056050006 0.10899392 0.014980526 0.03146281
000100 06 ea 19 3e bf 20 f3 3d 61 eb 39 3e 20 30 64 bc
       0.15030679 0.1187148 0.18156196 -0.0139274895
000110 38 ae 8b 3d 04 5a 0d be 04 a3 3f 3c c1 46 ec 3d
       0.06820339 -0.1380387 0.011696581 0.11536933
000120 21 32 af 3a d7 2a 48 3b 03 69 88 3b 0b 7b 22 3d
       0.001336638 0.0030543113 0.004162909 0.039668124
000130 00 0b e9 bd 08 00 0d 3e 23 0b 2d 3e 1e 36 25 3e
       -0.11379051 0.13769543 0.1689878 0.16133925
000140 81 95 9f bd 2c f7 60 bd 15 45 0c be e5 69 23 3e
       -0.077921875 -0.05492322 -0.13698228 0.15958364
000150 fd 9a 8f 3c 76 ce 06 3e d2 bd 3c 3d 7e 5d b8 bd
       0.017529959 0.13164696 0.046079464 -0.09002207
000160 ce 59 68 be 59 a4 03 be fe aa d9 bd b7 32 f0 bc
       -0.22690508 -0.12855662 -0.10628317 -0.029321058
000170 ee 15 7d 3c 47 02 de 3d 1d 24 02 be 9f c3 8b be
       0.015447123 0.10840278 -0.12709089 -0.27297685
000180 86 06 db 3d 00 db 6a 3c 2b 9a 67 3e 6c 58 9a be
       0.106946036 0.01433444 0.22617404 -0.30145586
000190 53 86 90 3c 3a dc 6b 3e 75 c9 ae 3d d9 70 40 be
       0.017642176 0.23033229 0.08534519 -0.18793048
0001a0 9f 15 a6 3d b5 b7 13 3e 86 04 75 3c 85 54 b3 bc
       0.08109593 0.14425547 0.014954692 -0.021890888
0001b0 a2 34 c3 bb aa c1 31 3e 5a 8b 41 be d0 09 7a 3e
       -0.005957202 0.17359033 -0.18900815 0.24417806
0001c0 f3 ee a6 bd 22 f2 6e 3d 08 f0 e8 3d 27 69 20 3d
       -0.08151045 0.058336385 0.11373907 0.03916278
0001d0 ac 88 65 bd 7f 0a 1f be a2 cd 96 bd 16 01 b0 bd
       -0.056038544 -0.15531348 -0.0736344 -0.08593957
0001e0 65 4f 09 3e d5 d8 6b bd 78 96 04 be f3 80 11 bd
       0.13409193 -0.057579834 -0.12948024 -0.035523366
0001f0 f3 d7 f4 3d f6 3c cf bd 7a 45 66 be b6 e1 5e 3d
       0.119552515 -0.10119049 -0.2248744 0.054414473
000200 d3 3e 12 3b 7e 7d 5b bd 8c 3f 44 3e 41 9b 29 3d
       0.0022315278 -0.053586476 0.19164866 0.041407827
000210 7d f2 c9 3c b8 36 82 3e 18 16 21 3d 8a 5f 0c be
       0.02465176 0.25432372 0.03932771 -0.1370832
000220 f2 77 e0 3d e8 03 2a bd 87 d4 d4 3d c6 1d 33 bc
       0.10960378 -0.04150763 0.10392099 -0.0109323915
000230 d8 f4 ac 3d f2 5e b7 bd dc fd e6 3d 3d d9 5b bd
       0.08445138 -0.08953656 0.112788886 -0.05367397
000240 1f 3f 5a be 33 4f 31 be 2d 17 9c 3e 28 30 fa bd
       -0.21313141 -0.17315368 0.30486432 -0.12216216
000250 5d 0f 9d bd 5f cf 1e be db 82 74 3e 14 85 6c 3c
       -0.07668946 -0.15508793 0.23878042 0.014436025
000260 e5 99 77 be d2 41 09 be 1c 3b 92 bc b0 64 6f 3b
       -0.241798 -0.13404015 -0.017850451 0.003652852
000270 4d d6 87 3b 4a 09 8a bc fa cf e8 bc cf 49 8a bc
       0.0041454197 -0.016850132 -0.028419483 -0.016880898
000280 fa 9c 65 3d af 12 2a be bf cc 01 3d c9 2e 04 3e
       0.056057908 -0.1660869 0.0316894 0.12908472
000290 aa 58 11 3e c2 19 3c 3e d7 ed 53 bd 14 c6 0b 3e
       0.14193979 0.18369201 -0.051740494 0.1364978
0002a0 17 25 e3 3c 6d be 44 be 89 d0 6c bc 34 00 8a bc
       0.027727647 -0.19213267 -0.0144540155 -0.0168458
0002b0 17 75 09 3e 15 12 dc 3d e8 e1 f0 bc 4b 42 15 be
       0.13423572 0.107456364 -0.029404595 -0.1457607
0002c0 15 ea 27 bd 75 a6 85 3d 81 a0 d6 3d 95 e9 c9 3d
       -0.040994722 0.0652589 0.104798324 0.09859005
0002d0 25 b0 2b 3c 48 e0 46 3d 2d f4 91 bd 78 1f 1e 3d
       0.010479008 0.048553735 -0.07126651 0.03860423
0002e0 9c ae 3b 3c a6 49 a7 bd ee c9 87 3d 8c 6c 06 3e
       0.011455204 -0.08168344 0.06630312 0.13127345
0002f0 90 07 02 be 91 a4 cb bb 59 6d 03 be d1 6a 29 3e
       -0.12698197 -0.006214686 -0.12834682 0.16544653
000300 d1 38 08 3e 95 f4 0c 3d 32 6f 6b 3c 3c 4a 0b 3c
       0.13302924 0.03441294 0.014369773 0.008501586
000310 b6 62 83 3d 38 11 07 be 5a 24 2e bc 4b 19 4e bc
       0.06415312 -0.13190162 -0.010628784 -0.0125792725
000320 44 6e 19 3d 6b 40 e3 bc aa 41 11 3d 4b 1c a4 bd
       0.037458673 -0.027740678 0.035463013 -0.08013209
000330 44 c6 d6 3d 7f 22 e1 bd 30 22 0b 3e 04 41 2e 3e
       0.10487035 -0.10992908 0.1358726 0.17016989
000340 1e c2 43 bd e1 21 0c bc dc a5 01 3e 12 f2 dd 3d
       -0.047792546 -0.008552999 0.12660927 0.10837187
000350 e8 26 5a 3a db fa 90 bd d1 7d 3b 3d 58 62 63 bd
       0.00083218375 -0.07079097 0.045774285 -0.05551371
000360 1a c0 92 bd fd 57 da bc a5 fe 58 bd e6 ed 5e 3e
       -0.07165547 -0.026653284 -0.052977223 0.21770439
000370 57 aa 35 bc 4e 55 4f 3c 0f 77 62 bb e2 07 0f bd
       -0.011087975 0.012654616 -0.0034555828 -0.034919627
000380 e6 a4 ad bd f6 fe 22 bd ca 3d 53 3e af 0c 8e bd
       -0.084787175 -0.03979393 0.2062904 -0.06936013
000390 06 e3 f5 3d ea b7 38 3e 37 48 df bd 51 35 3c 3e
       0.12006192 0.18038908 -0.10902446 0.18379714
0003a0 3c 5a 50 3d 75 be 14 bd ec 8b 6b be 7a b5 77 bd
       0.050867304 -0.036314446 -0.23002595 -0.060475804
0003b0 56 6d 52 bd 76 05 9c 3e f0 71 2a 3c 25 09 1b bb
       -0.051373802 0.30472916 0.010403141 -0.0023656574
0003c0 87 59 8f 3c 2a 3e 2c 3b ff 8f b7 3b 23 19 25 3d
       0.017498745 0.002628217 0.0056018825 0.040307175
0003d0 16 bc dc 3d 4d 0a c8 3d 0b 4d 80 3c 6d b5 00 bd
       0.10778062 0.0976759 0.015661737 -0.03142302
0003e0 3e 56 a4 bd 46 7a 93 3c 9b f4 c1 bd 31 03 be 3d
       -0.08024262 0.01800264 -0.09470483 0.092779525
0003f0 8d 41 31 bc 32 06 49 3b e9 03 14 3e 5d ec dc bd
       -0.010818851 0.0030673859 0.14454617 -0.1078727

fc_3.bias f4 [10]
000000 53 e9 45 be 96 de 71 bf 59 b7 64 3e ef d1 21 3f
       -0.19327287 -0.94480264 0.22335567 0.6321096
000010 e9 4d e9 3e d3 f1 47 be 94 90 bd 3d de 0f e9 3d
       0.45567253 -0.19525842 0.09256092 0.113799796
000020 4b 02 35 bd cd 3c 0d be
       -0.04419164 -0.13792725

momentum_buffer f4 [6, 3, 5, 5]
000000 d0 0d 68 3b a7 ac 23 3d c0 0f b7 3d a1 07 ee 3d
       0.0035408624 0.039959576 0.08938551 0.11622549
000010 22 0f 15 3e 24 1f 02 3d ca 64 9b 3d 4a 47 c7 3d
       0.14556554 0.03176798 0.07587583 0.09730394
000020 9c 9c e5 3d 98 f8 22 3e 4e 26 75 3d 34 e0 c8 3d
       0.112115115 0.15915143 0.059850983 0.09808388
000030 1c 19 fc 3d 05 ce 07 3e 7e 1e 16 3e dc ad f3 3c
       0.12309477 0.13262184 0.1466007 0.029745989
000040 4b 48 92 3d 9a c7 e4 3d fc df 0d 3e 14 a5 ef 3d
       0.07142695 0.111708835 0.13854975 0.11701408
000050 0f 76 45 3d 64 2c a6 3d 04 99 c1 3d 18 d8 07 3e
       0.048208293 0.081139356 0.094530135 0.13266027
000060 7a 0f 1a 3e b9 76 f5 3c bb ec 55 3d ee f6 a3 3d
       0.15044966 0.029963838 0.052227717 0.080060825
000070 21 ff b2 3d 00 e4 eb 3d da a5 64 3d 37 06 af 3d
       0.08740068 0.11518097 0.05582223 0.08546107
000080 a6 80 b0 3d 30 30 a8 3d a1 64 02 3e c5 b6 9b 3d
       0.08618288 0.08212316 0.127337 0.0760322
000090 c2 92 b7 3d 5c ed c9 3d ae 2d d7 3d 2e 1a fa 3d
       0.08963539 0.09859726 0.105067596 0.12212025
0000a0 19 ae 3d 3d bd d7 67 3d 40 c4 a4 3d ee 55 e9 3d
       0.04630861 0.05660223 0.08045244 0.11393343
0000b0 8a 00 ab 3d 47 66 50 3d 87 7a 89 3d 72 70 a8 3d
       0.08349712 0.05087879 0.06712823 0.08224572
0000c0 bf f9 fa 3d 18 75 f7 3d 08 ac f7 3c 6a 23 50 3d
       0.122546665 0.12082881 0.030233398 0.050815023
0000d0 ee 84 ac 3d 01 6e d5 3d 88 c8 09 3e f4 2e 1a 3d
       0.08423792 0.10421372 0.13455403 0.037642434
0000e0 db b6 89 3d 84 17 a8 3d 92 37 ac 3d c9 1f 0a 3e
       0.0672433 0.0820761 0.08409037 0.13488688
0000f0 34 e0 68 3d 97 b6 85 3d 1c c4 a2 3d f3 30 b7 3d
       0.05685444 0.06528967 0.07947561 0.08944883
000100 7f 16 de 3d 86 dd 0a 3d cf de 45 3d b3 0e 88 3d
       0.108441345 0.033902667 0.04830819 0.06643429
000110 f6 99 c2 3d f8 50 92 3d f3 8f 35 3d 8c cb 92 3d
       0.09502022 0.0714435 0.044326734 0.0716773
000120 23 e7 a1 3d a6 96 e6 3d aa 5a df 3d ce 9b 2d 3d
       0.07905414 0.11259203 0.10905965 0.042384915
000130 9b ea 8e 3d 6e 3f 84 3d f0 8c f1 3b b8 5c 95 bd
       0.06978341 0.06457411 0.0073715374 -0.07293075
000140 7b a4 ff 3d a5 a8 08 3e 6a 55 c1 3d 5e 4e 14 3d
       0.12482544 0.13345583 0.094401196 0.03620755
000150 4c 0e 14 bd 26 80 2f 3e bb 2b 1a 3e 51 32 f2 3d
       -0.036146447 0.17138728 0.15055744 0.11826003
000160 c7 4d af 3d d8 79 d0 3b a0 a8 0e 3e 77 34 06 3e
       0.08559757 0.006362181 0.13931513 0.13105951
000170 b4 3a f9 3d 80 81 ac 3d f8 32 1d bc 42 fe f6 3d
       0.121694 0.08423138 -0.009594671 0.120602146
000180 02 f3 d9 3d 1f 5c bd 3d 6d 76 a5 3d a8 5e 84 bc
       0.10642053 0.09246086 0.080792286 -0.016158417
000190 17 6d 06 3e 1e ec 02 3e dc d6 d9 3d c4 03 55 3d
       0.13127552 0.12785384 0.10636684 0.052005544
0001a0 1d a8 ef bc ef 2f 5b 3e de 93 3f 3e d0 fa 04 3e
       -0.029254967 0.21405004 0.1870875 0.12986302
0001b0 46 cf a5 3d d4 b6 70 3c 2a 4c 80 3e 57 c6 4e 3e
       0.08096175 0.014692027 0.2505811 0.20192848
0001c0 be 8d 17 3e 2f 89 ec 3d 72 67 44 3d 37 dd 3b 3e
       0.14800164 0.11549603 0.047950216 0.18346106
0001d0 89 b2 20 3e 58 53 11 3e 7b b8 d8 3d 44 5e c9 3c
       0.15693106 0.1419195 0.10582062 0.024581082
0001e0 40 1a 1a 3e a8 da ed 3d f4 56 d3 3d dc 1b cd 3d
       0.15049076 0.11613971 0.10319319 0.100150794
0001f0 3c 2c 90 3c b8 67 55 3e 3f fc 4b 3e 80 ff 30 3e
       0.017599218 0.20840347 0.19920443 0.17284966
000200 b0 5f 02 3e 93 2c 51 3d 63 8a 9c 3e 3f bd 8c 3e
       0.12731814 0.0510679 0.3057433 0.27488133
000210 32 32 60 3e 63 ec 30 3e bf ee d2 3d 0b 50 bd 3e
       0.21894148 0.17277674 0.102994435 0.3697513
000220 cb 61 a0 3e 8d da 80 3e b6 68 5e 3e 28 a6 14 3e
       0.3132461 0.2516674 0.21719632 0.14516509
000230 26 a2 a5 3e 8b d0 91 3e 6a 6b 82 3e 78 dc 51 3e
       0.32350272 0.28479418 0.25472575 0.20494258
000240 03 d6 f3 3d fe 6b 86 3e d1 30 69 3e 8f a3 51 3e
       0.11906054 0.26254267 0.22772528 0.20472549
000250 44 1f 38 3e 93 2c af 3d d9 fe 83 be 89 ce 80 be
       0.17980677 0.08553424 -0.2578037 -0.25157574
000260 ae c4 81 be 11 df 6f be 4b 5b 57 be 1a e6 78 be
       -0.25345367 -0.23424937 -0.21030919 -0.24306527
000270 40 fa 73 be c2 43 62 be 2f 4c 4b be 8d 6b 32 be
       -0.23825932 -0.2209616 -0.1985328 -0.1742384
000280 f6 f6 57 be 22 ae 4d be 5c 16 17 be 9e f4 0d be
       -0.21090302 -0.20085958 -0.14754623 -0.13862845
000290 40 67 f5 bd 8e c2 2c be 8d 31 24 be c0 49 0b be
       -0.11982584 -0.16871092 -0.16034527 -0.13602352
0002a0 b2 7f 24 be 9d 1d d2 bd 00 37 11 be da 2d fb bd
       -0.16064337 -0.102595545 -0.14181137 -0.12264605
0002b0 79 b4 ed bd e2 52 d2 bd 74 4a 03 bd 25 3c 89 be
       -0.11606688 -0.10269715 -0.032053426 -0.268037
0002c0 4e 91 80 be f6 29 74 be cc 9d 58 be 3b cd 34 be
       -0.2511086 -0.23844132 -0.21153945 -0.17656414
0002d0 70 21 87 be be dc 70 be 97 e1 4e be 20 c8 35 be
       -0.26392698 -0.23521706 -0.20203243 -0.17752123
0002e0 8f b5 10 be c3 9f 58 be 3a a0 38 be 1c 8a ed bd
       -0.14131759 -0.21154694 -0.18029872 -0.11598608
0002f0 45 01 d3 bd aa 6e 8c bd ed 63 27 be a1 52 14 be
       -0.103029765 -0.06857045 -0.16346712 -0.14484645
000300 c6 a4 ef bd c8 ef 04 be 44 70 5c bd 1a 37 17 be
       -0.1170135 -0.12982094 -0.053818002 -0.14767113
000310 b4 aa f6 bd 5b 33 e7 bd 32 6c c1 bd d6 a0 1c bc
       -0.12044278 -0.11289092 -0.09444465 -0.009559831
000320 b8 ea bf be fa a6 b6 be 04 4c ab be fc be 98 be
       -0.37483764 -0.35674268 -0.33456433 -0.2983321
000330 3c e9 83 be c0 4f bf be e4 df b0 be 22 c3 9b be
       -0.2576388 -0.37365532 -0.34545815 -0.30422312
000340 66 d1 8c be 9c d0 72 be ee 18 a3 be d8 4e 95 be
       -0.27503508 -0.2371239 -0.31854957 -0.29161716
000350 10 73 65 be 1c d3 58 be e2 9b 33 be 8e f1 86 be
       -0.22407174 -0.21174282 -0.17539933 -0.26356167
000360 98 d8 82 be 89 fb 6b be 26 58 77 be 66 43 21 be
       -0.25555873 -0.23045172 -0.2415472 -0.15748367
000370 5b 7b 78 be 83 cf 6a be e8 e4 68 be 58 aa 4e be
       -0.24265806 -0.22930722 -0.22743571 -0.20182168
000380 55 a6 ec bd 6c 79 b3 bd 43 95 f2 bd 06 4d fe bd
       -0.11555163 -0.08763394 -0.11844876 -0.12417035
000390 30 f3 d2 bd bb 21 cb bd b6 51 d3 bd 1d 1f 12 be
       -0.103002906 -0.09918543 -0.103183195 -0.14269681
0003a0 66 88 0c be 15 e0 d4 bd a2 a4 98 bd 44 0a f7 bd
       -0.13723907 -0.10394303 -0.07453276 -0.12062505
0003b0 ac 9c 2e be 15 1c 0d be bc d8 d1 bd da 05 a8 bd
       -0.17051953 -0.13780244 -0.10246417 -0.08204241
0003c0 91 1e e0 bd 55 aa 12 be 08 ef d6 bd 06 59 ac bd
       -0.1094333 -0.14322789 -0.1049481 -0.084154174
0003d0 c9 7f 96 bd d6 81 01 be ff 73 19 be 67 06 d5 bd
       -0.07348592 -0.12647185 -0.14985655 -0.10401612
0003e0 22 16 a3 bd e0 64 77 bd 64 07 d7 bd f4 fd f1 bd
       -0.07963206 -0.060398936 -0.104994565 -0.11816016
0003f0 3b 9c 01 be 20 9c dc bd f4 ba c0 bd 41 2f e9 bd
       -0.12657253 -0.10771966 -0.094106585 -0.11385966

momentum_buffer f4 [6]
000000 3f df 9c bd aa bb 84 bd 0d d4 b7 3d be de 9f bd
       -0.07659768 -0.064811066 0.08975992 -0.078061566
000010 08 20 d8 3d 4b 6e 93 be
       0.105529845 -0.28795084
